B_1.npy (npy, 2176 bytes, 1 tensors)

array f8 [256]
000000 db 31 7c 0d 78 5d 78 3f a7 f7 bb 72 a8 fd b8 3f
       0.005948513942496149 0.09762051392678349
000010 03 86 23 41 03 e5 90 3f a3 f3 6f a1 de 4f da 3f
       0.01649861416888677 0.411124856618523
000020 9f ac a8 ff 55 db da 3f 60 c2 6f 2b c5 59 cf 3f
       0.4196372028988637 0.2449270689098908
000030 a9 fd df 65 6d 5f c2 3f 20 96 12 35 1b 1e ba 3f
       0.14353721117366305 0.1020218853542123
000040 ad f7 13 35 38 1d c5 3f 22 ca 00 63 8b 26 a4 bf
       0.1649542102022087 -0.03935657104047531
000050 7c cd 83 da 34 0a c8 3f f2 03 28 9c f6 92 c2 bf
       0.18781147641821494 -0.14510996460742792
000060 38 a7 03 2c c5 99 a4 3f e5 ed ca d3 e3 d3 e7 3f
       0.04023567354472707 0.7446154724670434
000070 60 e2 84 e4 ee ff c2 3f 2c 31 1f 3c 54 b2 ca 3f
       0.14843546064527668 0.20856717048298756
000080 69 ca d8 4a c1 a3 c2 3f 9f 99 7d 8d 5c c1 a8 3f
       0.14562240748053348 0.0483502314298676
000090 1a b9 d4 43 a4 45 ad bf 87 99 f3 07 90 b6 bb 3f
       -0.05717194870008964 0.10825443452958981
0000a0 e8 90 2a 75 f0 aa c2 3f 5d fe 55 d7 a7 8d c4 3f
       0.14584165307053998 0.1605729867405782
0000b0 75 60 6d 91 60 c8 a3 bf 73 02 1a 39 91 ba ca 3f
       -0.03863813185915969 0.20881858146823937
0000c0 00 4f e4 42 18 87 c7 bf b7 08 aa 1e f2 27 d1 3f
       -0.1838102652187601 0.26806309694815006
0000d0 5d f6 be 8c a7 6c b1 3f d7 d7 3b 9d 3d 7c c4 3f
       0.06806418596439685 0.16004152467183871
0000e0 fa 18 d9 74 15 4a b7 bf 2f 1c df 6a 67 91 a3 3f
       -0.09097417929396903 0.03821871928772002
0000f0 13 88 23 a7 dd 97 c3 3f 1c c4 af 65 69 2d d6 3f
       0.1530720773799322 0.3465217106850689
000100 13 70 e7 45 4f f4 be 3f 11 16 87 30 78 61 a3 3f
       0.12091536957399311 0.03785300819758331
000110 56 d1 02 c5 fb 2b d7 bf 8e 9d 43 e1 fb 06 c7 3f
       -0.3620595382629025 0.17990063189720867
000120 b5 5c 65 88 62 8f e0 3f d4 6d e9 37 2d a2 ab bf
       0.5175030387862508 -0.05397168452756387
000130 bf c8 24 3f 0c ee d5 3f e8 b8 f9 75 58 31 f6 3f
       0.34265428701759143 1.3870472534577463
000140 c5 e2 01 3f ef c1 cc 3f f1 eb f5 3c 40 b2 a3 3f
       0.22466841293841902 0.03846932167194684
000150 3d 24 89 ca 1f 22 8a 3f a2 df 36 d6 77 9a e5 bf
       0.012760399216079072 -0.6751059707521458
000160 51 c9 88 42 f3 23 d1 3f a3 0f eb dc 1f 80 d7 bf
       0.2678192281483876 -0.3671950967220658
000170 f3 e6 d4 74 40 49 cc 3f a5 3f 1f dd a1 c1 c7 3f
       0.22098546700163232 0.18559668824172806
000180 2f 3a ce 45 f9 cb c3 bf bd 84 6a 14 b9 32 b8 3f
       -0.1546622839782272 0.09452397106589934
000190 31 fd 00 fb 0e 29 e7 3f 05 a2 d8 ba 56 bd b3 3f
       0.7237620260638434 0.07710783063578937
0001a0 d2 4b 31 ed 9a 98 dc bf 0c d2 c0 b4 72 85 d1 bf
       -0.44681428111397026 -0.2737700238388079
0001b0 59 a0 40 44 d9 f6 d0 bf 0d 58 b5 e4 fb 67 6d 3f
       -0.26506644883420943 0.00358962247779982
0001c0 d5 83 bb 45 18 33 91 3f 78 ef 00 69 79 dc c7 3f
       0.016796473747380098 0.18641584040767234
0001d0 4b e7 b3 38 c3 1a d8 bf b1 bf 7f b5 04 73 b1 bf
       -0.37663345849397406 -0.06816129141929995
0001e0 2c 46 35 e0 34 d8 c9 3f a0 0e 71 f7 04 f5 ee 3f
       0.20191060016309004 0.9674095948070836
0001f0 5b 67 29 5a 61 5f 6f 3f c6 3b 4f b1 ae 94 b4 3f
       0.0038296605501217224 0.08039371327252728
000200 0d 01 34 d4 93 a0 dc 3f 46 94 a4 df ad 72 af bf
       0.4473008701607036 -0.06142180781379429
000210 f8 be 37 e7 d1 cb b5 bf c8 f3 d3 01 25 19 d3 3f
       -0.0851412953850249 0.2984097020960772
000220 b9 69 cd 06 12 b2 bc 3f 52 6a 52 8e 07 f7 aa 3f
       0.11209213892053684 0.05266593563392931
000230 e3 4d 89 21 11 c8 c7 3f 3a 90 24 4a 51 12 d1 bf
       0.1857930577994998 -0.26674301376829457
000240 40 86 35 13 a4 d5 94 bf 8a d3 2b fb 7a 16 b4 3f
       -0.020346225426129516 0.07846802360638896
000250 dc 28 e0 69 c5 31 be bf ca 13 e0 0d e3 53 b8 bf
       -0.11794694743017281 -0.095030012977147
000260 60 fb d1 70 2d f4 a4 bf 50 08 12 9b 84 4f c5 3f
       -0.04092542650413722 0.1664891965083961
000270 f0 ab 57 d0 b4 e3 db 3f 6e 6d d9 19 f6 bd d0 bf
       0.43577308984703134 -0.26159431957576984
000280 94 f9 b7 48 38 3d d2 3f 4a 39 84 66 0b 99 ca 3f
       0.2849865636962019 0.20779554849327503
000290 23 19 5a ef 0d e1 e2 bf 93 33 f3 1c 8a 06 91 bf
       -0.5899724650232979 -0.016626508728950617
0002a0 1b 62 ff ef d5 f9 a6 bf 4b d8 d1 3c 22 ab cd 3f
       -0.04487484507234659 0.2317850872966026
0002b0 a3 6b 4a 78 67 c2 cc 3f 35 15 2f 3e e7 73 df 3f
       0.22468274472779823 0.49144917557380846
0002c0 de 18 a6 7a 8a 72 bc bf 2a 8d 27 9e 18 f1 c4 3f
       -0.111122755950507 0.16360767099750123
0002d0 06 4e 95 f2 ce 71 c7 3f 0e 7c 40 49 cc bd be 3f
       0.1831606564033878 0.12008358753563206
0002e0 6e 6c 67 ad b3 87 d4 3f f8 2e 61 c0 5c 15 d1 3f
       0.3207825845144673 0.2669288519580131
0002f0 1c 03 54 f3 af 52 de bf ca 77 10 7d df 79 c0 bf
       -0.4737968326808628 -0.12871926886231072
000300 2e 05 fa 8d 52 dd d7 3f be 40 c2 af 21 d8 c6 3f
       0.37288345208078766 0.17847081262562442
000310 39 1a 10 ab 41 1a ab bf 6c f3 27 d0 e6 74 a8 bf
       -0.05293469632311027 -0.04776688853232866
000320 ca ac ad 73 7c 69 9b bf 38 e3 d3 07 f4 bd c5 bf
       -0.02676958519024878 -0.16985941297732565
000330 27 cc c1 5a a9 41 c9 3f 57 40 e7 e3 a5 aa 80 3f
       0.19731633121009048 0.008137985246236363
000340 9d df 7d 1a 0c b2 c6 bf f8 14 af f4 9d 13 75 bf
       -0.17730857175388062 -0.005145661368208147
000350 47 b9 85 7d ff 75 b0 3f 80 4f b1 c3 77 e1 d2 3f
       0.06430050673018171 0.29501146422011715
000360 31 ed 76 10 d3 4c a7 bf 35 4f 6e d6 e9 e0 b9 3f
       -0.04550799919112548 0.10108815655831623
000370 4a 5f dc 89 cc e4 b7 3f 9c a1 78 4e ed 39 d9 3f
       0.09333494535200973 0.39416058219151195
000380 69 02 c4 7c 60 5e e1 3f f4 7d de 05 34 9f bd 3f
       0.5427706181363422 0.11571049826897434
000390 93 e1 67 56 70 19 df 3f 65 57 b9 ad 41 7a aa 3f
       0.4859276622587682 0.05171399350790188
0003a0 79 be 52 6c 33 f5 99 3f fa c9 c1 33 ac bb b6 3f
       0.025349429594540205 0.08880115760420174
0003b0 73 38 30 99 7d eb b3 3f af 59 a7 a2 d7 8b a8 bf
       0.0778120516772292 -0.04794191227454136
0003c0 54 ba 16 f6 99 d7 fd bf 10 d5 6e 48 d5 ab bf 3f
       -1.8651370632975572 0.12371571558363237
0003d0 c9 c3 98 bb 1d 52 a8 3f 45 68 47 42 f6 65 e2 3f
       0.047501496458046306 0.5749465269575543
0003e0 14 ab 4e 36 5a bb d7 3f 48 0c 14 30 21 26 9f 3f
       0.3708100824684817 0.030418890532939252
0003f0 11 b5 ca 34 32 1a b9 3f fa b6 bc 01 ff c3 db 3f
       0.09805597103941845 0.43383765382428374
000400 7c 6d 80 04 1b 82 c3 3f 62 d7 cd 1b ed 39 d1 3f
       0.1524080059033216 0.269160535004053
000410 e4 84 2a f9 45 66 c3 3f a1 11 07 d4 d2 87 c8 3f
       0.15155863443673134 0.19164500573073176
000420 4c 94 b5 0e 8b f2 c6 3f c1 ef 43 9c f3 cf 5c 3f
       0.17927683084704638 0.0017585639007497852
000430 28 c6 f2 b6 1c d6 ce 3f 6b bf eb 5d e0 98 c2 3f
       0.24090918477081513 0.1452904184911817
000440 c8 0e 48 00 39 5e aa 3f 34 0e b2 72 ba 19 b1 3f
       0.051500111851081665 0.06679883289512462
000450 b3 b8 d8 8a e1 da d0 bf cf fc 2a 1b 7f 9e b9 bf
       -0.2633594375537413 -0.10007471478728579
000460 23 18 f0 b9 e5 08 bb 3f da 57 f4 ce 99 20 ac 3f
       0.10560451306818712 0.05493622447299602
000470 53 ce 51 e7 48 25 b7 3f 04 25 91 cd 4d 6e ca bf
       0.0904126705880171 -0.20649120843362578
000480 1a 27 27 ab b3 bc b8 3f 95 73 50 45 af 07 d9 3f
       0.09662936142481407 0.39109403389903125
000490 27 7e 3d 2d ae ab 83 3f 8c ac 35 79 4f 75 c0 3f
       0.009604798083898093 0.12858003061714773
0004a0 36 4e 6a eb 99 1a d6 3f 0c 90 ec 57 fe 8c ab 3f
       0.34537361135264477 0.05381007025997073
0004b0 2c 5f 8a f0 67 6a bd 3f 16 6a d4 d7 49 9b bc 3f
       0.11490487692423973 0.11174451369553426
0004c0 cd ad 17 40 0d fb d2 3f 7d 51 41 c7 2c bb de bf
       0.29657298335106647 -0.48017425020704946
0004d0 bf 82 76 60 5e c9 dd 3f bc 8c 5c cc 41 9f d2 bf
       0.4654155675907922 -0.29097027737789083
0004e0 de 53 c9 3b 83 e3 bc 3f 0a 14 dd 68 be e3 a5 bf
       0.11284656724576744 -0.04275317220757564
0004f0 74 d7 da 9c 2b 39 cb bf 47 ce 1a be 80 0c bc 3f
       -0.21268220099380708 0.10956577912548325
000500 4c f2 f2 de f7 98 b0 bf e3 ef 1c a4 37 e0 bc 3f
       -0.06483411019412094 0.1127962852160063
000510 7a 4d 72 2a 42 a9 cb 3f cd 2d 6c df 81 d9 be bf
       0.21610285828192471 -0.1205063982453602
000520 2a 76 29 95 23 db 9b 3f ef e5 40 fe 39 3d af 3f
       0.027203136424182407 0.06101399639778637
000530 66 f5 f6 0f b3 d9 9a 3f 7b c0 73 b4 d7 17 a6 bf
       0.02622108254376112 -0.04315065458092789
000540 86 91 f7 82 dd e0 b1 3f e0 27 bb d3 26 bb d0 bf
       0.06983742186964123 -0.2614228313146878
000550 36 c4 ea cd be 21 c2 3f 9b 1c 72 39 5c a6 ce 3f
       0.14165482573074123 0.2394519119736501
000560 07 02 3b 71 27 91 b4 3f 00 19 c2 0d 39 70 c2 3f
       0.08033987535873886 0.1440497700861627
000570 05 7a ec a5 c6 97 a7 3f 1d 05 02 24 e1 fc dd 3f
       0.04607983375011674 0.46855953709025916
000580 d6 0f 68 9e 37 7f c6 bf 39 52 01 86 b3 d9 c3 3f
       -0.1757573626965711 0.1550812153169703
000590 6b f1 0a c5 f2 51 ba bf ba 7c 70 e3 53 43 b2 3f
       -0.10281293211568758 0.07133983900756649
0005a0 5c 8d bc 06 fc 5d 94 3f df 2a 35 2f a7 46 c1 3f
       0.019889772330441743 0.13496866040289654
0005b0 97 7e 4f 35 a9 b5 c5 3f df b0 21 c6 93 c7 82 3f
       0.16960635283520695 0.009169725879666078
0005c0 25 48 f3 a3 51 f3 e2 bf ce 71 ee e6 1c f9 c8 bf
       -0.592202015128582 -0.1951023223490566
0005d0 77 88 d3 bc 8f 51 f5 bf ae e8 e6 74 01 27 d0 3f
       -1.3324124694850334 0.25238071838578946
0005e0 b4 aa 77 6b 47 85 bd 3f d8 c5 87 84 6c d2 98 3f
       0.11531492589680675 0.024240203465472593
0005f0 53 76 fb 56 30 f8 b8 3f 77 b5 09 a6 58 1d 9e bf
       0.09753706096258812 -0.02940882218756743
000600 d3 c0 ef d0 db f2 c1 bf 2d 5a cd a7 e8 ce b6 3f
       -0.14022395803431795 0.08909467789394716
000610 ca 71 9a 16 32 6c 51 3f ba 74 3a 68 70 94 d1 3f
       0.0010633935111520215 0.2746850030760687
000620 04 b2 4d c1 ae 8c c2 bf 8f 27 4e b5 92 f5 b3 3f
       -0.14491829336783735 0.07796589781187734
000630 bb a1 d7 58 06 3d a7 3f e2 ef 33 a6 2f e8 b5 3f
       0.04538745722294687 0.08557412917792775
000640 5e 74 ca e0 c6 26 ac bf 79 b7 74 eb 64 d1 cf 3f
       -0.05498334402111803 0.24857770439978902
000650 87 b3 8c 54 f8 b3 a6 3f ac f3 03 90 dc 47 9b 3f
       0.044341812439916466 0.026641317644123738
000660 6e ae 3e 72 ba 5e b5 3f db eb cb e1 65 89 bb bf
       0.08347668923550497 -0.10756527674304499
000670 11 af 45 94 ad 40 b0 3f b0 5d 51 99 c7 1b c7 3f
       0.0634869086258585 0.1805352686521764
000680 fa d4 30 50 c7 ff c3 3f 65 71 da 3e a8 7c 7a 3f
       0.15624324241222337 0.006466538628640305
000690 33 6f 71 9a 7f 39 d6 3f 7f 4d 96 8a c5 37 d2 3f
       0.34725942690214423 0.2846540311231464
0006a0 b7 31 56 3d 0a 6b bd bf bc d0 c0 c0 04 7a bd 3f
       -0.11491455075719768 0.11514310556305224
0006b0 ce 04 94 16 a2 f0 b7 bf a9 89 91 62 9a fd c7 bf
       -0.09351552058435006 -0.18742685139575357
0006c0 3c 6c 4c 94 7b 82 88 3f b0 44 e5 a1 33 06 c6 3f
       0.01196762605973422 0.17206426053102097
0006d0 4a 03 db 13 b0 97 f0 bf 1d e6 64 17 72 1b be 3f
       -1.0370331550222596 0.1176062876810637
0006e0 8b 69 b2 b8 c9 61 c7 3f 8b 44 8c 6e 52 bb d4 3f
       0.1826717521515316 0.3239332274980106
0006f0 42 cb 45 a0 1a 97 9a 3f 5f 9f 73 02 c3 ec c0 3f
       0.025967041046395474 0.13222539539060116
000700 ea 7d ba 4a 9d 92 a1 bf a8 fd 38 78 6f 35 a6 3f
       -0.03432170426571786 0.04337642996369634
000710 f4 5a 0b 5e 42 82 d3 bf 7f d4 0d 39 f2 5c d2 3f
       -0.304825393524353 0.2869229848068428
000720 4d b4 a6 8f 26 f6 b1 3f 95 3b 95 a7 19 92 bb 3f
       0.07016221053227518 0.10769806233768826
000730 2b 24 73 c8 79 87 d5 3f 12 5f c2 46 39 3a d6 3f
       0.33639378142521775 0.34730369482120793
000740 5a 84 b2 f1 1e 21 92 3f 55 95 46 ce 96 50 b1 3f
       0.017704471113237787 0.06763594184902406
000750 43 6d 9f ae 07 84 c1 3f 7b e6 e5 30 86 b7 a0 bf
       0.1368417360925865 -0.03265017840290071
000760 63 f0 34 36 0e 2b b1 3f 5e 37 8e 02 2e d3 c8 bf
       0.06706322501571686 -0.1939446938017068
000770 21 bd 0a e1 4c 65 ca 3f a6 8a 11 42 b3 14 bb bf
       0.20621644008995424 -0.10578461039544126
000780 a7 17 82 8b 5d 38 bc 3f 6a df 57 c2 96 85 a0 3f
       0.11023506790124192 0.03226920244554672
000790 15 0c 19 47 49 6d b5 bf 77 b6 af 42 ae 6a c9 3f
       -0.0836988257006371 0.19856813675089643
0007a0 c4 9d 7f 81 49 b1 c6 bf d3 47 09 06 0f 60 b7 3f
       -0.17728537390870092 0.09130948922509612
0007b0 08 44 34 b9 f1 e1 ca 3f 70 2f a9 18 48 00 93 3f
       0.21002027075931573 0.018555761819058103
0007c0 12 42 9d e0 29 00 bb bf 28 9d e7 18 35 67 d9 bf
       -0.10547124608752537 -0.3969242804727906
0007d0 13 d0 24 a8 b8 2d ba 3f a0 72 df be 07 2c cc 3f
       0.10226015191148034 0.22009369678462054
0007e0 d9 cd 94 b0 e0 cc c4 3f 36 6c e9 05 67 20 99 bf
       0.162502371045419 -0.024537667976215448
0007f0 73 89 a6 68 b9 07 c2 3f 0b 32 f7 6d 8f 04 bc 3f
       0.14086072549714465 0.10944458422381602
