W_0.npy (npy, 10368 bytes, 1 tensors)

array f8 [5, 256]
-0.1749987391457488 0.318524796093691 0.061276014865106136 0.09579976749677276 -0.18538983225579156 1.3925658289732565 0.0014115201755121223 0.3253414573176461
-0.057372608717712444 -0.03284871199378127 0.3076552968506522 0.2534235080371174 0.20216036885380315 -0.020711863903350163 -0.030340459015183355 -0.019062141210737855
0.10911178224416711 -0.6987040160135749 -0.5388810458053976 0.403570065648472 0.3809646066425467 0.34711697820099857 0.6460268565729844 0.14788500045498384
-0.32227223195511573 0.18482457131018712 -0.30515256543488656 0.5369081825084011 -0.02148571520876976 2.2581050076373637 0.015947738954198813 -0.2978494040788032
0.45044461863327295 -0.29755793699424404 0.24059586215568268 -0.2490806033759348 0.20716056232795152 0.5567750857786349 0.3844836320597383 -0.2686714045420333
0.025440894447905482 -0.02223304033118047 -0.023018490363881386 0.20747463637348534 0.08824459551608577 0.32024606891117896 -0.7149531316368221 0.9452677217776606
-0.22053552469836776 0.2584020924704236 -0.23374226921429564 0.06898805971142961 0.7935095387838541 -0.34692186825044546 -0.6866494223787156 0.30912872852355777
0.20293164515629458 -0.01965198503107124 0.016335502934009517 -0.16335482653547578 -0.7149403823935453 -0.006997625954613934 0.015208547233027638 0.3413212001958568
0.35485995356979594 0.22690749992224196 -0.2072970878087935 -0.21654655150007862 -0.011758178308131252 0.30753776232470204 0.20761711572204006 -0.022188096435389403
0.3536347198421559 0.0039715415023558525 -0.034811069149819164 0.021277310528296782 0.10741064609935586 0.46197534894533054 -0.1308935908183575 -0.149032590791304
-0.0053812401894191625 -0.11608541499844204 -0.12313126438617306 -0.08972824261659124 -0.26802195856084615 0.5897484280530713 0.13846564302238448 -0.10763769605794439
0.0030516317798041388 -0.04619941598254992 -0.17585218643068906 0.3310869912780194 0.0129603840432426 0.07311463275250916 0.12870978337695665 -0.24318222636064973
0.24840245984191087 0.012987887925919738 -0.007064837875413553 -0.7845919035886744 -0.13748252230541255 -0.2869158507444656 -0.4586098292280237 0.0971159479275794
0.23286009226316792 0.13429166399584103 -0.029963071015514153 0.0036771101666504026 0.005745060023445543 -0.2847921697159886 -0.2513507166105441 -0.24389459930325527
-0.01605981736993427 0.025151865898633944 0.04851319149718892 -0.12292431551710148 0.23810643447798546 0.08416358266962058 0.35804085863426416 -0.010563360346713678
0.2963686605850157 0.23030058688079455 -0.022632056435261033 -0.34981310650618136 0.2683526704246806 0.2975233649554689 0.3393112804057751 -0.048162469093802764
0.2270600379104251 -1.0149918021697544 0.11665862590700905 0.008900856217828398 -0.017025883650872625 -0.43585289712341485 -1.5361348203830383 0.38556517566581605
0.14472128470430098 -0.24387503486023906 -0.22805106025350153 0.004741814958354707 -0.1467820158509332 -0.17657762870507865 0.2996296405527497 -0.13115717695961668
0.29138939777052125 -0.19799020975424697 0.46463040307329223 0.48611356573314785 -0.02472207320618072 0.8227329318711701 -0.2508213804509633 -0.23066384625918682
-0.07836913064611517 0.006986943888906409 -0.0005092441668296324 -0.12344466784335288 -0.1747402931303917 0.006340592134402445 -0.1210810250220438 -0.04872013943747334
-0.07829061964891809 -0.03765951351051696 -0.45751803874714503 -0.03657596118361966 -0.18964893299775104 0.21835915513565732 0.36647818130826343 0.07270278888321244
0.21232838473948065 0.3061657757700634 -1.3675576593820848 -0.026324665244846064 0.23300828236203247 -2.6346798948736074 0.011777230831137624 0.17161490665973794
0.13036390406721382 -0.033977900002333826 -0.6481988386955675 0.17130206029870398 0.27221680663504944 0.031611288381437445 -0.6976916633052344 -0.04711745462597707
0.29450446284064524 -0.07638472416814567 0.40715985270929533 0.13913604704510787 -0.2218679599945958 -0.04777029070262931 0.5622421949556634 -0.030534305294471847
-0.3117476151797557 -0.2543513632199311 0.2668234529070197 -0.9913448745610343 -0.18725488817876865 0.1396772022227134 -0.00014159943962120607 -0.03638713074978411
0.3322315814844534 -0.2287890659185061 0.0060519606143031495 -0.9592073962405778 -0.08797678511049005 -0.003477749309726175 -0.04783649219442613 -0.16476361332101486
-0.193032241694116 0.12112728836553767 0.10286517385947434 0.284624050718227 -0.007505464320144491 0.027922452838858882 0.1089365368407821 0.6529238186500719
0.48025319858215376 0.35768060429452675 0.2092046475952934 -0.23917734165678273 -0.2082761524302941 0.0253338587730769 -0.04865398942945393 0.28194222670115865
0.12174916645768838 0.08866930500465589 -0.013151701059804363 0.5071356785147778 -0.2287270042380465 -0.38405881237715184 0.9487539393319558 -0.39278779551204596
0.29420883448628465 -0.12335121819715036 -0.11186817978885434 0.2884471765047213 -0.01813686131518367 0.18142080891117407 0.003675697289861801 0.3747866996102386
-0.052237921884658214 -0.22772788493266066 0.505263003479788 0.9232319328766214 -0.015545896352576949 -0.0009593916096898499 -0.18773448429073938 -0.9644069723183584
-1.058111750615068 0.009318532350021386 0.523290927991757 -0.029200544049210436 0.9810182811345305 -0.11939550576865249 0.3160082227313806 0.013550309017492025
00000000: e771 bcd2 5b66 c6bf 88ff 8bd3 b562 d43f
00000010: 1feb bfdf 915f af3f 5ff0 5c64 5586 b83f
00000020: ad57 46a1 daba c7bf ec79 4f1b f347 f63f
00000030: 5339 743f 5820 573f d495 cdf9 64d2 d43f
00000040: 61ef 414c f15f adbf 4241 75df 8bd1 a0bf
00000050: d28a 9ad7 9fb0 d33f 17a6 c33b 1738 d03f
00000060: ef1e 6316 64e0 c93f 0e97 6aa8 7d35 95bf
00000070: 6405 ddbc 9111 9fbf b20e 5ea4 0685 93bf
00000080: 1bd3 58f0 bfee bb3f da96 4b86 c85b e6bf
00000090: 0864 8576 833e e1bf 64b4 668a 17d4 d93f
000000a0: c4a5 9d5f b961 d83f d79d 5021 2a37 d63f
000000b0: 6332 aa83 40ac e43f f7f4 424c e5ed c23f
000000c0: 55fe 29b6 1ba0 d4bf f321 a3e0 54a8 c73f
000000d0: 6855 35a0 9e87 d3bf 1b82 9a11 5a2e e13f
000000e0: 0681 9cf0 5900 96bf f5e3 b55b 9910 0240
000000f0: ee82 03a5 9a54 903f fab2 69f2 f60f d3bf
00000100: 351a 6caa 15d4 dc3f 6c8d 0372 300b d3bf
00000110: 7e7b c15f d8cb ce3f b2a6 c88a dfe1 cfbf
00000120: 4719 1cc0 3c84 ca3f d8b2 14fc 19d1 e13f
00000130: d1ce 623c 619b d83f 0438 f88b e931 d1bf
00000140: d0f9 8986 2d0d 9a3f 65c8 7314 42c4 96bf
00000150: e4bf 43bd 2892 97bf 4e9f fc64 878e ca3f
00000160: 8053 caa3 3297 b63f 4f59 295e e97e d43f
00000170: a2b1 d163 e5e0 e6bf bcfb df17 a23f ee3f
00000180: afc4 1711 823a ccbf 5138 18ee a889 d03f
00000190: e0ee fb44 44eb cdbf ff6b 4694 33a9 b13f
000001a0: 9780 c41d 6e64 e93f dac8 99c7 f733 d6bf
000001b0: 4ce2 9d35 08f9 e5bf c8d0 d0dc c3c8 d33f
000001c0: 9087 a205 aaf9 c93f c02b 0a64 a61f 94bf
000001d0: ba0c 760b 41ba 903f 268b ce9a cfe8 c4bf
000001e0: 550a 1fa7 cae0 e6bf 6dcd fee9 8aa9 7cbf
000001f0: ee5a e2a7 a825 8f3f 7d73 11e0 34d8 d53f
00000200: b282 cf85 06b6 d63f 1e0b b111 4e0b cd3f
00000210: 7bef 5802 b688 cabf c090 6022 ccb7 cbbf
00000220: e107 5afa ab14 88bf 310e dedd b2ae d33f
00000230: 66d9 0e99 3293 ca3f 16b4 33f2 79b8 96bf
00000240: 8cf0 1c85 f3a1 d63f 4790 e08d 7644 703f
00000250: c514 13a7 c1d2 a1bf eea6 7623 b8c9 953f
00000260: b42c 3d9c 437f bb3f 06d1 d10d 0191 dd3f
00000270: a811 e905 1fc1 c0bf 824f befb 7f13 c3bf
00000280: 47f3 01aa a30a 76bf 4ffd f514 c6b7 bdbf
00000290: b05b a7d1 8785 bfbf 1cd9 901b 6ef8 b6bf
000002a0: a53c a892 4527 d1bf 075f 6b18 38df e23f
000002b0: d74b 3300 3eb9 c13f 91ba 62e0 248e bbbf
000002c0: c4bb 3256 bcff 683f 4b8c 7a29 73a7 a7bf
000002d0: 1230 d30e 5382 c6bf 6be3 ea7d 8730 d53f
000002e0: f3e6 df4c f98a 8a3f aff4 87fc a3b7 b23f
000002f0: 3abf 23eb 8f79 c03f aefe 975e 9820 cfbf
00000300: c32b a2dc a6cb cf3f f366 16cf 6499 8a3f
00000310: 72e9 05fa 04f0 7cbf ecd4 d37a 601b e9bf
00000320: 1f63 89fc 0699 c1bf 20b2 e94c d45c d2bf
00000330: f924 8a0a dd59 ddbf b1dc 443c 97dc b83f
00000340: 332c 6808 5cce cd3f 4c68 7e20 7830 c13f
00000350: 50be 65a8 a3ae 9ebf 080e 1b7d 751f 6e3f
00000360: 7bca a0ce 2188 773f 4592 c5ef 083a d2bf
00000370: e6c7 ea50 2116 d0bf 47d9 d62f f037 cfbf
00000380: 8dce 8819 fc71 90bf 213e df25 69c1 993f
00000390: b15d cf95 b8d6 a83f 7875 07cb f777 bfbf
000003a0: 266a 868a 457a ce3f d388 149b be8b b53f
000003b0: b2d1 9d34 24ea d63f ffcb cc39 3ea2 85bf
000003c0: e767 3142 b4f7 d23f 0789 7358 7d7a cd3f
000003d0: 6835 ec98 db2c 97bf 68ff 0983 5663 d6bf
000003e0: 542b d1ad b02c d13f 27e5 9170 9f0a d33f
000003f0: 9a6d 20a9 46b7 d53f a513 4e4b c0a8 a8bf
00000400: c9e2 86a6 4d10 cd3f 666f 400b 683d f0bf
00000410: 8120 11f7 56dd bd3f 2b51 e5b2 9c3a 823f
00000420: d82e ddb5 3b6f 91bf 49c3 c08c 03e5 dbbf
00000430: f7ab fc1a 0294 f8bf e483 fd8e 19ad d83f
00000440: ab87 6b20 3a86 c23f 1b8e 8411 4c37 cfbf
00000450: 60af cdf2 c630 cdbf 1a92 b742 276c 733f
00000460: 4840 dcca c0c9 c2bf 702c 3f82 189a c6bf
00000470: dd85 c5cc 212d d33f bfaf d624 c2c9 c0bf
00000480: 63d5 74b7 1fa6 d23f 484d e941 be57 c9bf
00000490: 6955 7b28 81bc dd3f efcf bd12 7c1c df3f
000004a0: 67b3 a33f be50 99bf eb52 7703 d453 ea3f
000004b0: 5f2a 8b1e 750d d0bf 79c1 0696 6486 cdbf
000004c0: a019 24d5 ff0f b4bf 7889 0778 579e 7c3f
000004d0: 4034 6785 d9af 40bf 6bb6 40db 119a bfbf
000004e0: 1aed 24d2 e35d c6bf 262b acbd 97f8 793f
000004f0: 23c6 a282 2aff bebf 71bd 149b d8f1 a8bf
00000500: 0cc6 f9a2 da0a b4bf cb66 d295 1b48 a3bf
00000510: 6af0 6fbd f947 ddbf 67f2 349a 15ba a2bf
00000520: 5e2b 798e 6a46 c8bf d57f 0b5b 31f3 cb3f
00000530: c1a8 dae6 6074 d73f f6d5 9464 a69c b23f
00000540: 43fa 3b96 932d cb3f a18f 8556 3898 d33f
00000550: b90b e723 84e1 f5bf 7213 3861 daf4 9abf
00000560: 8695 3824 37d3 cd3f 7249 7f0d d313 05c0
00000570: dcb3 0e2a a91e 883f 9209 ce2d 7af7 c53f
00000580: 9a16 46b0 c3af c03f d3f3 9722 8d65 a1bf
00000590: a415 b07d 0bbe e4bf 8c34 5cd5 39ed c53f
000005a0: 6cd2 7a0a 006c d13f dfbd 90d3 5a2f a03f
000005b0: 76cf 9277 7d53 e6bf 93f0 606d c71f a8bf
000005c0: b84d 1b3f 29d9 d23f af56 3704 f38d b3bf
000005d0: c25b e832 e80e da3f 3d71 e0c1 35cf c13f
000005e0: ce7f 1a58 2b66 ccbf b48f 93f8 5875 a8bf
000005f0: af81 f857 e3fd e13f 1856 958a 6244 9fbf
00000600: 1265 f344 acf3 d3bf 6e3f aef0 4a47 d0bf
00000610: 0ca7 02ad a213 d13f ea7f e9e2 18b9 efbf
00000620: b339 5fda f7f7 c7bf ec8b c54b f1e0 c13f
00000630: e93d b3ec 498f 22bf 2896 2181 55a1 a2bf
00000640: 3c24 4b40 4843 d53f 1fb4 e6c9 f548 cdbf
00000650: 954c a4ce f0c9 783f 34e8 9db5 d3b1 eebf
00000660: 9355 db86 a585 b6bf 9a15 9171 5e7d 6cbf
00000670: 2593 0f53 067e a8bf 186c 645d f916 c5bf
00000680: 832c 93ce 47b5 c8bf a1e2 2eae 3202 bf3f
00000690: 1fb1 9f3d 5f55 ba3f 6159 5fcb 4737 d23f
000006a0: 48b5 bdbc 0cbe 7ebf c768 1117 b497 9c3f
000006b0: a916 12cf 43e3 bb3f 3235 fc7d c0e4 e43f
000006c0: 726c 6de9 77bc de3f d2f1 7630 3de4 d63f
000006d0: 1ae7 cbc7 37c7 ca3f c417 2ef6 5c9d cebf
000006e0: 09c7 9cff caa8 cabf 79bb a57b 1ef1 993f
000006f0: 19c0 d6fa 2ce9 a8bf c8be c268 570b d23f
00000700: 9e43 4010 f42a bf3f 926f 2715 08b3 b63f
00000710: 8b4f 826f 47ef 8abf 3a62 3b9a 743a e03f
00000720: 210d 752d ed46 cdbf 41a1 b969 6b94 d8bf
00000730: ad38 ac38 315c ee3f c37f ff6b 6f23 d9bf
00000740: 0e06 944a 51d4 d23f f219 1408 f293 bfbf
00000750: 41fb a79d 64a3 bcbf 3a86 6d25 eb75 d23f
00000760: e39e cd28 7892 92bf 8c2e 8b0c cc38 c73f
00000770: b368 ccf4 7e1c 6e3f e24f 735a 81fc d73f
00000780: 7a12 36cc edbe aabf ce25 16f5 2f26 cdbf
00000790: ae61 7a51 1d2b e03f 9e7e cab1 1d8b ed3f
000007a0: f3de 5ee3 86d6 8fbf b5ec 38cb f56f 4fbf
000007b0: 7119 2eff ae07 c8bf 0689 c402 6cdc eebf
000007c0: fb7a 4696 06ee f0bf 1d3e 853d 9815 833f
000007d0: 2c94 c09d ccbe e03f f8f7 dd56 bfe6 9dbf
000007e0: b807 4873 8064 ef3f 74d4 9030 b490 bebf
000007f0: c97e 798d 7a39 d43f 1486 a5b0 43c0 8b3f
