W_1.npy (npy, 524416 bytes, 1 tensors)

array f8 [256, 256]
0.1843203347224067 -0.23657437248576577 0.05196002165404859 0.2789283489940349 0.036048104086704676 0.03087229915654065 0.028381439434600534 0.04029989707304688
0.17357500721244595 0.18381995160648848 0.052517040509900914 0.07102826705579565 -0.21781876045002416 0.0026072197284521224 -0.025065019709020905 0.03003902449756871
0.15971021987092138 -0.295754113775402 -0.1737752642409686 0.03406254879240256 0.03999340698638481 0.3040857667537318 0.04696217741543229 0.14216233755168722
-0.2531964853610594 0.09250828613927732 0.33872687905638615 0.07985957019473777 -0.1435009190090351 0.010405557765027938 0.12138304652327106 -0.1530360234099386
-0.03274327807170464 0.08639351457243365 -0.32895872547758875 -0.001958698017263494 0.05616201759417991 0.3340571776652539 0.010664449830227702 -0.31205041668393974
-0.06109857874255961 -0.26129339202586627 0.07043068813573768 0.007532240624229693 0.26977937426421467 -0.020977451133559987 -0.0007802659915945166 -0.24304224213230408
0.004382269256790838 -0.07937700795112541 -0.2971000333360259 -0.025815933147963384 -0.29858626190852117 0.03712374219796662 0.0047022221431817605 -0.01608897575300798
-0.041388740420364264 -0.08238802732694842 -0.07722510022194945 0.015837909759473905 -0.01573327776756575 -0.19528640608124032 0.019538303415558688 -0.028207110349569412
-0.04760412960563091 0.16592695194942808 -0.14850400939515526 0.2617765705617336 -0.15191588370502984 -0.02254147925900908 0.23826285075908465 0.015382000712623738
-0.33448851915679245 0.028099235132474507 0.25858594322605105 -0.19210067087768185 -0.030322485073412633 0.10674386654359747 0.31989414268719724 0.2063318542849268
-0.10589420040480176 0.07429904626428756 0.44714948768092244 -0.01380498688893547 -0.08429431926375473 -0.02736663734990473 -0.12396378462231247 0.023085960300214963
-0.0657694598942018 0.02324456315789882 0.03636669457436777 0.08533518853059975 -0.18212859690139427 0.6642738083176527 -0.16068759850370082 -0.14806978768581738
0.035056080719942255 0.08548244246523207 0.28305375670813837 -0.25765149325367614 0.2799950058276004 0.06742189883133833 -0.07854614459131976 0.06895135429742727
0.23884052350664636 -0.07469178241670561 -0.10013892996213714 0.10904851902599158 0.2361180541745346 0.053800116238781504 0.04758221739538441 0.1132419915394116
0.14589849743281588 -0.1276960869106933 0.017790403718619976 0.0073997501984464946 0.09739898906680754 -0.08070748173314306 -0.02790287350500879 0.008522411888947326
0.3029190216222107 0.13710593714661126 0.005545970842026298 0.049411952576881364 0.03660720450310194 0.2277314332424131 0.07669158276359987 0.0430163947948636
0.16990718895839046 0.0005877939899162491 0.07998456802119341 0.07110643738427408 -0.08493106658168607 -0.04833092979172302 -0.07335415714190249 0.057587424082240206
0.0002944404549551227 0.11011119106796857 0.19533501068820167 0.12305943658432303 0.07315505116789209 0.03845652778698365 0.053083244142041755 -0.04091559637143894
-0.09081718278088764 -0.05131897728278601 0.17441580297454126 -0.046861615475852055 0.12138050559262872 0.11721833533728707 0.02354032038439268 0.08673547176403977
-0.08831345128997874 -0.1141081543036917 -0.019630705016275132 -0.02303520853856003 0.06198930030881269 0.07810972724624543 0.04257568662760606 0.045350435743859684
-0.10343843609482081 0.044771857872032805 -0.10475085876069122 -0.1162522127177775 -0.0763588868571631 0.06685828952379215 0.16816893047148684 0.022282967361264013
-0.1947831261069604 -0.026897975769682756 0.033015643914067694 0.0542563721355429 0.08286503955529989 0.239203368101697 0.07760209540101089 0.06528543826449024
0.07789893788564307 0.00854602598725372 0.11471216724594012 0.08765516666172009 0.06060898770020263 0.029702564299301865 0.03042660875557706 0.045566762044667704
-0.2827608465663442 -0.23118573950143442 -0.06656472557214248 0.02699975605841566 0.11156374329177364 -0.030495962492984745 0.08564473123177577 0.19727503694438542
-0.04567967594207225 0.06836642978756849 -0.4433539580840574 0.13820916155020807 0.013307751940051276 0.06908979313395246 0.04978939529239799 0.08565406071489363
0.10215288654476638 0.06016479010567151 -0.0705749391376128 0.2831121475733269 0.04610605327351036 0.17188625968055254 0.20049523810733452 0.0005146879236965494
0.04181897793387885 -0.0025573315369890144 0.019073610180300588 -0.2657431876035811 -0.023322416453251168 0.08407691402774851 0.009900406987183384 -0.3613886374408789
-0.3510786251270173 0.08892292561305458 -0.13476827135324307 0.04502339639671245 0.13595585933506163 0.07383162695243391 0.06490438766421859 -0.12350718934845142
-0.020706306195670852 0.26958542762368004 0.14726833108108092 0.07403733661099082 -0.02999322960469781 -0.29924743003590326 -0.13517047682347985 0.0968317040507602
0.04203719731780689 0.04807497525269887 0.047069450645873076 -0.054863083560231 0.04440513406560598 -0.022354333807214376 0.08931970580864525 -0.015787495898124282
-0.016163045990553567 0.01335916551769812 0.2054252186023512 0.09469886566635503 0.12117188657109096 -0.1666115966885506 0.20665674973798911 -1.057691320943945
0.1510698343072637 0.03014204007943509 0.08602813323880042 -0.09507638799420734 -0.24876960991432945 0.026413374569273843 0.10713320173460414 -0.03251541166590991
00000000: df6c cf08 cf97 c73f 7df4 72ac 1148 cebf
00000010: 043d 6803 819a aa3f 6dd3 364a f6d9 d13f
00000020: 0139 45a8 e574 a23f bd2e ebec fc9c 9f3f
00000030: 5174 bd28 0610 9d3f 69fb eb27 30a2 a43f
00000040: 96b1 b0b1 b437 c63f 2147 4084 6987 c73f
00000050: e009 f276 83e3 aa3f 56a0 1894 e82e b23f
00000060: 4147 4b32 7ce1 cbbf f833 f36e bc5b 653f
00000070: 2c03 b2ff a4aa 99bf e97f 48cf 8cc2 9e3f
00000080: ac5e 976d 6271 c43f ffa8 94a9 a2ed d2bf
00000090: 5d65 6292 443e c6bf 30de 297a a570 a13f
000000a0: e7d0 1f0e 047a a43f 28ba d825 2476 d33f
000000b0: ffe4 4b30 6d0b a83f caf2 401f 6032 c23f
000000c0: 09a0 0508 5f34 d0bf c9c3 937f 9fae b73f
000000d0: 5fb1 f480 b3ad d53f d04e 4242 ad71 b43f
000000e0: f27c 0bf5 3c5e c2bf ff24 6152 824f 853f
000000f0: 3236 1b97 f512 bf3f f0e9 d335 af96 c3bf
00000100: 32af f618 bac3 a0bf 7bd3 aca7 e21d b63f
00000110: d83e eae5 a80d d5bf 670e a9fd af0b 60bf
00000120: 7c52 b099 44c1 ac3f b43e 445b 3161 d53f
00000130: 6a5a 013a 3ed7 853f 9c15 974f a2f8 d3bf
00000140: 4c10 101b 5048 afbf 415e 5aeb 07b9 d0bf
00000150: 3d82 2dde be07 b23f c2c1 5872 20da 7e3f
00000160: cb68 66b5 1044 d13f e3ce 49ea 1c7b 95bf
00000170: 7c17 4275 5891 49bf f49b c018 021c cfbf
00000180: 6630 3e72 24f3 713f 9554 3435 0d52 b4bf
00000190: 4166 b4db af03 d3bf 624b 58f2 7d6f 9abf
000001a0: b5a5 7b8d 091c d3bf 1a72 4a15 e201 a33f
000001b0: ac06 2d25 a342 733f ecc0 bde2 a079 90bf
000001c0: d662 0ead e730 a5bf b281 f3ba 6117 b5bf
000001d0: 4c33 e22f 06c5 b3bf 8ed5 d021 d037 903f
000001e0: 68df e165 621c 90bf 6a74 bc1b 25ff c8bf
000001f0: 73b0 c158 d901 943f d13f dd21 53e2 9cbf
00000200: 0518 9f87 915f a8bf b4e9 1228 183d c53f
00000210: 2faa d6eb 2d02 c3bf d7fc 5a84 f2c0 d03f
00000220: 00c6 20cc fa71 c3bf 4435 e210 1d15 97bf
00000230: ee55 eea7 657f ce3f 7ce8 0f30 9980 8f3f
00000240: fe9d aa88 4268 d5bf 0912 bfbf 0bc6 9c3f
00000250: ef1d 570e ac8c d03f 72ca 7a39 c196 c8bf
00000260: 2420 e586 db0c 9fbf 7874 dae7 9053 bb3f
00000270: 8780 4148 2579 d43f 1f6e 230b 1569 ca3f
00000280: 1d1f 93df e11b bbbf 4b40 d425 4305 b33f
00000290: 5ad0 80e2 189e dc3f 2f70 adf9 c945 8cbf
000002a0: f7f5 7900 5094 b5bf 9c65 adf1 ff05 9cbf
000002b0: 2e5a d730 17bc bfbf 8bd8 f191 d8a3 973f
000002c0: e038 526f 44d6 b0bf c5bb 4a3a 6ccd 973f
000002d0: 6a97 b8c7 a79e a23f 01da efe3 86d8 b53f
000002e0: 34ce ad67 fd4f c7bf c209 4a25 bb41 e53f
000002f0: 371c 3946 6991 c4bf 9d70 d167 f3f3 c2bf
00000300: 3fa9 6fe0 def2 a13f 3037 c566 2de2 b53f
00000310: bc91 0481 8d1d d23f 0f91 52b0 5c7d d0bf
00000320: f4a9 442c 70eb d13f 29cb 83c2 8f42 b13f
00000330: 8c21 3fa2 991b b4bf 88ec b8c3 cba6 b13f
00000340: 16d5 b586 5392 ce3f 997b c22a 001f b3bf
00000350: 906a 3e75 b4a2 b9bf 82d4 e48e 9aea bb3f
00000360: 455f 56cc 1d39 ce3f 387b 8857 b08b ab3f
00000370: 652e 2b47 b25c a83f 2f18 325a 6dfd bc3f
00000380: c736 814d cdac c23f a7e6 8d6a 5858 c0bf
00000390: e7ce 9dc8 a537 923f 6346 9d51 334f 7e3f
000003a0: 1795 b4e0 23ef b83f 231c 96da 3ea9 b4bf
000003b0: eb7a ac24 9292 9cbf 88c0 c4c2 3274 813f
000003c0: 9d09 cd76 0663 d33f 89e9 10f6 af8c c13f
000003d0: 46d5 4136 5fb7 763f 71cb b200 864c a93f
000003e0: ae11 47f4 2dbe a23f 4510 06b9 4d26 cd3f
000003f0: 9f1f d93f 0fa2 b33f 3be9 abb1 3e06 a63f
00000400: fe3d f7cd 84bf c53f 7e2b 53fb c542 433f
00000410: 4cf1 d55f de79 b43f 44bc 190f 0834 b23f
00000420: 43fb 61d9 0abe b5bf 2d73 aee5 d4be a8bf
00000430: ce3a f389 56c7 b2bf 772e 304e 197c ad3f
00000440: 0a2b e91f e44b 333f 0c7f 8f3c 3f30 bc3f
00000450: a7b6 55d5 bc00 c93f c606 98bf d280 bf3f
00000460: 46a5 4d18 4aba b23f d65b 53f2 92b0 a33f
00000470: 8a7e 1c1b ba2d ab3f c192 9f98 e3f2 a4bf
00000480: bd71 f57d cb3f b7bf c1fd 2f22 7b46 aabf
00000490: af32 d7cc 4153 c63f 5922 d0e3 3efe a7bf
000004a0: d26c e4f5 ca12 bf3f bee4 c354 0502 be3f
000004b0: 3ed9 c028 f41a 983f db32 a1be 4b34 b63f
000004c0: 6b5c 16d9 b59b b6bf 90f7 f026 3136 bdbf
000004d0: 3457 2b50 121a 94bf 2891 51ad 8a96 97bf
000004e0: d379 0ec3 0fbd af3f a0a8 05c4 fffe b33f
000004f0: 3533 57fb 7acc a53f 032a c21c 2c38 a73f
00000500: 5e38 2dfc f07a babf 78de ae42 56ec a63f
00000510: c7e6 9ac8 f3d0 babf a6e2 b57b b4c2 bdbf
00000520: 9a7b cf89 418c b3bf b19f f8f6 9f1d b13f
00000530: d806 4a3c 8f86 c53f 6240 4ca0 58d1 963f
00000540: ba94 384a a7ee c8bf f99c 0999 248b 9bbf
00000550: 080f bc2d 6de7 a03f 3ff1 d7bf 7dc7 ab3f
00000560: a02b dfaa a436 b53f d27f 8b49 379e ce3f
00000570: a531 d91d bbdd b33f 5c42 40e6 8bb6 b03f
00000580: 39aa 9c4e 2ff1 b33f 3717 0231 9480 813f
00000590: df4b c6ce c65d bd3f 5534 23aa 9170 b63f
000005a0: f135 0828 2408 af3f 0563 1759 596a 9e3f
000005b0: 2e31 2226 2728 9f3f b16d 88d1 8654 a73f
000005c0: c7de 25f3 c018 d2bf 05e9 3a8b 7e97 cdbf
000005d0: 034a 66c7 620a b1bf c45f 15f5 d2a5 9b3f
000005e0: 9785 db04 718f bc3f ae07 4566 553a 9fbf
000005f0: 7a16 b727 d0ec b53f 5825 fff3 4e40 c93f
00000600: 33b2 8694 5363 a7bf 8af6 145c 7680 b13f
00000610: ce7b a147 e95f dcbf 0ed0 6e7a d6b0 c13f
00000620: f628 ed3a 1841 8b3f 4f6b ff61 deaf b13f
00000630: bdda efe0 fe7d a93f cd41 8aad 6ced b53f
00000640: 67da e60a b126 ba3f cac6 bf5b ebcd ae3f
00000650: 8763 83ff 3211 b2bf 8060 bb69 821e d23f
00000660: 302b ea6d 369b a73f a6d8 fa73 5e00 c63f
00000670: b55d 56f5 d3a9 c93f fede 63e6 83dd 403f
00000680: f903 280d 4c69 a53f 16ed 1fea 1cf3 64bf
00000690: f5a0 c34f 0888 933f 5f19 f9b6 ef01 d1bf
000006a0: 5fbc b8df d4e1 97bf 5708 198c 1086 b53f
000006b0: acfb d021 aa46 843f c617 bdce fd20 d7bf
000006c0: 15b1 4f7b 1278 d6bf ef69 5f21 a7c3 b63f
000006d0: bb14 0033 1640 c1bf 8a4e 287e 4e0d a73f
000006e0: d996 c568 0067 c13f 2dd2 2b27 a1e6 b23f
000006f0: 517d 62ee 929d b03f f28d 12cb 2a9e bfbf
00000700: a9b8 b9af 0834 95bf e5cc c73c e340 d13f
00000710: 3768 dd4c b0d9 c23f a459 6d63 1cf4 b23f
00000720: b2ae 0391 8bb6 9ebf e2a3 5ab1 de26 d3bf
00000730: a1b8 ab24 444d c1bf dd2c 1d6a f6c9 b83f
00000740: e415 6447 e685 a53f 8ec5 ee7c 489d a83f
00000750: fe54 54ae 7c19 a83f 973d 4c9b 0317 acbf
00000760: 002c 2c0d 45bc a63f 96df 80f2 0de4 96bf
00000770: 1123 56ff a7dd b63f 70d0 45ea 982a 90bf
00000780: 4f91 bba7 0b8d 90bf 04bf 00d8 0c5c 8b3f
00000790: 1cdb d5a1 5f4b ca3f d35a 0153 2f3e b83f
000007a0: 1478 04ea 1e05 bf3f 7fb1 745f 8753 c5bf
000007b0: 2da8 cf76 ba73 ca3f fe79 0bbc 4dec f0bf
000007c0: db83 e19e 4156 c33f 9bea 8011 8edd 9e3f
000007d0: 8fec cb92 f005 b63f ce92 0e19 ed56 b8bf
000007e0: 6e0d 69bd aed7 cfbf c1e0 ce8f 1b0c 9b3f
000007f0: b611 c4dd 146d bb3f c52e 712b dca5 a0bf
