W_3.npy (npy, 6272 bytes, 1 tensors)

array f8 [256, 3]
-0.07677903586776474 0.0194896358917007 0.09765960584110576 0.16867519069339879 -0.4277625083326431 0.2800012891459589 -0.09172655374393031 0.08208856373668334
0.07235901811422636 -0.13760443561049912 0.039464088285204875 0.11630186573463185 -0.06934193285035242 0.03657339229525551 0.05871876354657723 -0.46901264554064453
0.42544069875307733 0.10032015035715404 -0.26930374049505595 0.17896713920697963 0.1368680040422662 -0.03685903750104929 0.14197244068425835 -0.05563725480874417
0.1978470300283283 -0.3323928241064008 0.1728430363318316 -0.09482696624013834 0.028262414068809368 0.11368951573181352 -0.09937166106208468 0.04801112614322363
0.06913190677380003 -0.0728509026504731 0.03314799515015747 0.08746235940154737 0.09517982250745156 -0.1500159400111112 0.1043089791291465 0.699530166543153
0.3897166840695592 -1.0541250837019236 -0.12133331590329749 0.05717242833346962 0.10254238842649586 -0.10364686067705389 0.06700521450900628 0.08020855088654327
0.1756914267086032 -0.3394978262053601 0.18269425830257166 -0.14268156042561495 0.12228886035960877 0.07929138336241116 -0.09123046258290485 0.0175052155724135
0.10187508091251801 0.14716580593932982 -0.18878024706384147 0.08527013084820713 -0.2033401243283835 0.134551366156776 0.10175717827820016 -0.1346337971816759
0.060347564633031245 0.11077233373023782 -0.08646853060995358 0.009880688572170091 0.11128813400258783 0.21799305807551334 0.12330271790198967 -0.31448704815464296
0.34083406503502894 -0.4579207044553735 0.1665727337806608 -0.12130448867822212 0.07397637721823652 0.06635667297588989 -0.12550842122016945 0.05512711199473723
0.09958446457855877 -0.11264467376531709 0.04526895012117252 0.09392412445741184 -0.22312010166278698 0.1641658915039168 0.08332332272300144 -0.1037748649325404
0.046768266161479444 0.08982415543255004 -0.09144141666183708 0.03448628863989467 0.08075972585629247 0.8728543754752138 0.2545176747689815 -1.0811362497094188
-0.3112097145809453 0.1261046967303604 0.2379702107943087 -0.11079330635136674 0.0692014887963411 0.055437477974556774 -0.10408163698200036 0.04250785334179875
0.10591662527428337 -0.13684788396932962 0.10649476229934034 0.0465437263825051 -0.07638298349629209 0.04201368603874302 0.06635510865343384 -0.20997519917280144
0.1539301227195626 0.11421804965917658 -0.112490763527457 0.04310620957691307 0.09404186065864918 -0.008324710589777018 -0.04450888896591907 0.10653183122897979
-0.07837107295078062 0.05618594304371002 0.06177160142290131 -0.08000803824165732 0.021018446298642024 0.09833622915889932 -0.13666601616224952 0.10243646582131732
0.07619913895253833 1.1539229557715467 -0.09707558796293947 -1.0197368793266046 -0.10259381503384048 0.041068591041946656 0.09873573404540673 0.30827462541837497
0.12216775100355465 -0.38172350021370466 0.5670496134247495 0.1158530059872496 -0.6345767388899899 -0.23024023986860914 0.11079277712240697 0.17103709887220606
-0.2020377321903525 0.1427103284998751 0.0916466182543515 -0.1535617685222004 0.1427805710458025 0.06235714113449428 -0.08807996745555476 0.01913740192307061
0.09894353831810845 -0.11558479536175512 0.05964104561471529 0.11554695051422118 -0.14074058481227955 0.10300150174962004 0.08138226165779311 -0.08108686221424982
0.04492474227997438 0.06145221923122321 -0.15646942287424376 0.06287454991647522 0.1211445896213476 -0.11498280283033062 0.03673160222233242 0.096345098479723
-0.08677753036062966 0.0835508659659886 0.06875648756071621 0.14914228899216564 0.10654828319549262 -0.20544452507099753 -0.12579655227082556 0.09343977489866681
0.06972653309005544 -0.11550865115856028 0.04874422528817787 0.11131549366028878 -0.06624729413534768 0.019978008785676855 0.10619585440233963 -0.27279011223043764
0.15104920494673948 0.13735112275116437 -0.07453235116384102 0.051165595075100934 0.07174884614700515 -0.21072206693021442 0.09915102553719529 0.1588563284827067
-0.3318952183364044 0.2521718079728198 0.1185350678630945 -0.12219656426027473 0.05528213683025024 0.08974600367055623 0.6882873415120835 0.1481621373266802
-0.8084316413978478 -0.11325598436516397 0.09440990859760835 0.06919471600618488 -0.10937092421537117 0.030022773755690183 0.1210715682641581 -0.2486627595333913
0.15586730597545378 0.12338686680062606 0.3798599726993914 -0.46330790405496175 0.12831433833920092 -0.25442107500979205 0.13366200307166778 0.16703786873390578
-0.09665084123616365 0.034665077523128196 0.10945353480769594 -0.10732128199608816 0.07338100592999293 0.07080099963160152 -0.10788483152528158 0.06756321708925962
0.08022825790378461 0.2453938005991936 -0.31669840995407234 0.09934299094621288 -0.08532901790557497 0.022185649376962047 0.07811659412952075 -0.08110645196017759
0.018181855040173067 0.07914539306097094 -0.10771077028684768 0.10732518262894927 0.059858463488825106 -0.2405640510105584 0.154989357452484 0.11543494220061179
-0.10279722974025945 0.05227180339078573 0.1069072677359751 -0.09157146455499819 0.03020838417468459 0.07964754617975008 -0.07177392676452768 0.008650557934549052
0.0995082434339857 -0.12921380983159375 0.091997787551118 0.07015891709978093 0.2570835019401613 0.1672496174215178 -0.3843096019518064 -0.23279153615587767
00000000: b409 1278 caa7 b3bf 7b2e 1053 17f5 933f
00000010: 1751 3a4d 3800 b93f f15c d60d 2697 c53f
00000020: a197 efff 7560 dbbf 1c10 ee86 8aeb d13f
00000030: 8545 8134 647b b7bf 25ea 9f90 c103 b53f
00000040: cd0b 5fe0 1e86 b23f 1aa6 5dab 059d c1bf
00000050: a152 1a11 a334 a43f 5745 cb85 f5c5 bd3f
00000060: d26c d595 64c0 b1bf 76b1 9f67 bfb9 a23f
00000070: af2e 30c2 6210 ae3f 057b 809d 4d04 debf
00000080: ea09 e29f 6b3a db3f 71ed e9d4 94ae b93f
00000090: 9b78 87c1 453c d1bf a9f0 f92c 65e8 c63f
000000a0: 6d7b 9d08 e484 c13f 1712 4211 30df a2bf
000000b0: 4e0a d626 272c c23f 3380 af7b 7c7c acbf
000000c0: 158c ca2d 0d53 c93f 9692 3d8d ec45 d5bf
000000d0: af7a 317a b81f c63f 1ac1 c77e 9446 b8bf
000000e0: 22b4 8680 d2f0 9c3f f859 f78f c11a bd3f
000000f0: 7d2d 69d2 6b70 b9bf 7a30 4211 ea94 a83f
00000100: 9b1e b4ee a0b2 b13f 2f2c 5e54 5ba6 b2bf
00000110: 061f 3226 c6f8 a03f 92b9 42e5 ee63 b63f
00000120: 4d99 e870 b45d b83f 59fb 1cea b833 c3bf
00000130: d0f0 0946 feb3 ba3f eac8 7b16 8d62 e63f
00000140: 5132 323f 1ef1 d83f d449 8643 b2dd f0bf
00000150: 544b b83f b30f bfbf 05ae d95b b445 ad3f
00000160: f7da becc 3740 ba3f 5ae6 f0c4 9988 babf
00000170: 0d47 faf4 4027 b13f 3cd1 ea2e 8c88 b43f
00000180: 0155 f381 0e7d c63f 055e 2717 55ba d5bf
00000190: 77cb 4984 8662 c73f 0398 e2ad 6343 c2bf
000001a0: 8bdd e89f 524e bf3f 616a 65aa 704c b43f
000001b0: 8449 312d e15a b7bf 6960 9221 e3ec 913f
000001c0: 34ef cb3c 7c14 ba3f e4a8 cc41 54d6 c23f
000001d0: 558f a27d f329 c8bf b195 5167 43d4 b53f
000001e0: d23c fa97 0c07 cabf bc42 a3aa fa38 c13f
000001f0: 768e d628 c20c ba3f b471 ea25 ae3b c1bf
00000200: 8ef6 fb40 e0e5 ae3f b447 ac5e 935b bc3f
00000210: 5459 1a37 cd22 b6bf 9246 3c92 533c 843f
00000220: c656 f90f 617d bc3f e63c 984f 32e7 cb3f
00000230: 219f e554 c490 bf3f c5be b548 8e20 d4bf
00000240: 3f0b acae 39d0 d53f dc03 73a4 924e ddbf
00000250: e622 ff5d 4152 c53f 9b20 bb9b cf0d bfbf
00000260: d431 d4a8 1df0 b23f 3985 4d3c c0fc b03f
00000270: 33b1 41f2 a810 c0bf c6d8 47ee 9e39 ac3f
00000280: faf8 8d12 5e7e b93f 1200 e405 48d6 bcbf
00000290: c4e1 96e8 7d2d a73f c19a d952 690b b83f
000002a0: 1566 dc11 338f ccbf 8862 904f 6303 c53f
000002b0: 4edf 1662 ad54 b53f 4836 0853 fd90 babf
000002c0: 60f0 4e9b 02f2 a73f 5e3f f941 b7fe b63f
000002d0: fcff 0f66 b468 b7bf a0ce bcd3 2fa8 a13f
000002e0: e3fe 625d abac b43f 00c5 9a4c 6cee eb3f
000002f0: 59c0 5880 044a d03f 4a5a 3086 554c f1bf
00000300: 5fa6 9426 dcea d3bf 4419 2ade 3224 c03f
00000310: f852 64d0 ce75 ce3f 8713 653b f35c bcbf
00000320: d5fc 3653 30b7 b13f bf33 bf15 4d62 ac3f
00000330: 81ab f31a 18a5 babf 9135 dadf 96c3 a53f
00000340: 31de a719 5a1d bb3f ce68 1641 3b84 c1bf
00000350: ab5d 45a1 3d43 bb3f 892d 4b4d 94d4 a73f
00000360: 3d65 16d0 d58d b3bf 02a8 0a5f d182 a53f
00000370: 57ca 96fd a5fc b03f d289 b5a2 77e0 cabf
00000380: a792 7975 fbb3 c33f 4729 e6e3 643d bd3f
00000390: dfd6 73d6 31cc bcbf 8754 c660 0412 a63f
000003a0: 09e0 fb9b 2013 b83f 80a3 dabd 8b0c 81bf
000003b0: 7dd6 fa7c dec9 a6bf 9f88 1c8b ab45 bb3f
000003c0: 19aa 466b 2010 b4bf 0b3d bc67 67c4 ac3f
000003d0: 24a6 ddff 86a0 af3f c53f aa23 687b b4bf
000003e0: c091 dc0d dc85 953f ebda 3f28 902c b93f
000003f0: a91b f2a2 457e c1bf 34d1 9eb6 4639 ba3f
00000400: c4d5 c869 c981 b33f 7747 d2ea 7776 f23f
00000410: a071 8a1b f2d9 b8bf d1b9 339e d750 f0bf
00000420: 999b 5798 9643 babf c8fe d53e f106 a53f
00000430: 62ec abbc be46 b93f d3f2 967e c5ba d33f
00000440: c4a6 2fbf 6246 bf3f a714 6267 286e d8bf
00000450: bbcc 1b3b 4525 e23f 92c8 dbe7 8aa8 bd3f
00000460: feb6 8ae0 734e e4bf 4ebc 3a1e 8378 cdbf
00000470: 67ae 5f5a ea5c bc3f 2f88 072d 8be4 c53f
00000480: 9d64 2856 5fdc c9bf 35ac da00 5544 c23f
00000490: f801 311c 2776 b73f c100 dc7a e9a7 c3bf
000004a0: b6ad 923d a246 c23f bc7d b073 46ed af3f
000004b0: 9d83 a7a3 688c b6bf 0e5b 8f4d c198 933f
000004c0: 7a0f 3a1d 5d54 b93f f65b fe13 f796 bdbf
000004d0: 5132 d468 4589 ae3f ba71 9c25 7c94 bd3f
000004e0: 3f8c 7e98 c903 c2bf e518 7471 4e5e ba3f
000004f0: d473 4bc8 77d5 b43f 2470 58cd 1bc2 b4bf
00000500: 0658 bf35 6000 a73f 5cbd ba4f aa76 af3f
00000510: c6d0 08a7 3007 c4bf d758 a4e7 8b18 b03f
00000520: cbd2 82f2 5403 bf3f 4339 c251 836f bdbf
00000530: 3298 8c0c 7cce a23f e4ad 1987 12aa b83f
00000540: 7a32 ed5e 0d37 b6bf c85b e0ec 9663 b53f
00000550: 1b0b 7671 069a b13f e001 d632 1817 c33f
00000560: aa03 c58f bf46 bb3f 683d 2996 014c cabf
00000570: b9f3 f9f6 191a c0bf 2edb 5549 abeb b73f
00000580: 2406 491b 99d9 b13f 0b8f 2197 f991 bdbf
00000590: ac91 f6ca 00f5 a83f f61c cf14 2c7f bc3f
000005a0: f782 c229 95f5 b0bf b2a6 7e79 1d75 943f
000005b0: c3fa a0c9 a62f bb3f ebeb aca8 6475 d1bf
000005c0: 4da1 aa91 9455 c33f 397f 24ba b894 c13f
000005d0: 9620 be5a 8d14 b3bf c84d 0e7b 6032 aa3f
000005e0: b724 bae3 215e b23f b361 01d1 f0f8 cabf
000005f0: b40f 0c2c f661 b93f 1845 cc77 6755 c43f
00000600: 6108 1d71 c53d d5bf 5eda 0d39 9523 d03f
00000610: 8eb0 e66f 5058 be3f 0273 2e27 4648 bfbf
00000620: f853 7ab3 f04d ac3f 4334 b616 98f9 b63f
00000630: 2172 c12c 7306 e63f 2a6a 2917 faf6 c23f
00000640: 145f 9b08 acde e9bf f3b6 ec1c 58fe bcbf
00000650: f956 d86d 3f2b b83f 5875 4db2 beb6 b13f
00000660: 8668 a39e bbff bbbf c1e0 a93d 4abe 9e3f
00000670: 8084 2bda 8bfe be3f 62ea f669 2ed4 cfbf
00000680: c610 d7ba 75f3 c33f 0923 aa1d 4896 bf3f
00000690: e869 f333 a04f d83f 4d3d f931 d6a6 ddbf
000006a0: e82a 63af 9a6c c03f 5222 2555 6f48 d0bf
000006b0: a990 f425 d61b c13f dfec b333 7f61 c53f
000006c0: 797e 3d0a 1cbe b8bf 30df 8cfc 9ebf a13f
000006d0: 313f 6e98 2505 bc3f a986 5654 6879 bbbf
000006e0: 45ed 9dfc 18c9 b23f 341c f1a9 0320 b23f
000006f0: aeb3 221f 579e bbbf 5998 cfaf d24b b13f
00000700: 476c e9cf d689 b43f b17a 1b66 1069 cf3f
00000710: 13ab 5c68 c944 d4bf 2e68 33d1 8a6e b93f
00000720: dde2 4d5d 1fd8 b5bf b0ec 0eba d5b7 963f
00000730: 9faa 0ff9 72ff b33f edde a976 64c3 b4bf
00000740: f3d4 1ca3 439e 923f 8370 d35a df42 b43f
00000750: 4519 cfdb ee92 bbbf 66b6 6dc5 a979 bb3f
00000760: 6689 25be c4a5 ae3f fe80 d785 cdca cebf
00000770: bc44 bef6 b0d6 c33f 2039 91f5 248d bd3f
00000780: 7c93 da53 eb50 babf cefa 21ac 5ec3 aa3f
00000790: 7577 a152 465e bb3f c7b2 823d 3a71 b7bf
000007a0: 948f 6158 f2ee 9e3f 0d76 0c16 c863 b43f
000007b0: c2bd 28ac c65f b2bf 004b 5e3b 62b7 813f
000007c0: 6a3b 3b4b 5f79 b93f 7e89 b5ff 138a c0bf
000007d0: d11e d6c0 2a8d b73f af61 774e eff5 b13f
000007e0: 3225 4b5c 0e74 d03f ed05 8c7a 6f68 c53f
000007f0: 8cfe fa4c 8798 d8bf c09c 49f1 1ccc cdbf
