data and plots/B_0.npy (npy, 2176 bytes, 1 tensors)

array f8 [256]
-0.0649933195402763 -0.047537118914324765 -0.0600888557152383 -0.06240681764031444 -0.07492798790665015 -0.06706707334242995 0.1112764146232245 -0.06116586963344499
0.08654147409516724 -0.06691156264906736 0.008095331017806713 -0.030035688375935666 -0.03665232225768295 -0.05864998320075111 -0.07528337733790326 -0.06548027372049282
-0.0610567437117061 -0.06776273614078021 0.06489121879055308 -0.008443591476003601 -0.07363649085730728 0.010760875601173326 -0.06669563711462774 -0.01431426879778501
-0.06759529111452689 -0.06443137577646076 -0.07260640400178295 -0.01116263630795834 -0.04569014195704066 -0.059350923490075286 -0.07495490224508579 -0.06277917173772811
-0.05733639888467011 0.02268029066322182 -0.06259281161891848 -0.055724449274639036 -0.06762446053941323 -0.059392773029049446 -0.06748621646488868 0.09197777397134269
-0.06537752464546252 -0.0760578598274051 -0.06277749064180566 0.06492780496111984 -0.011920039289345874 -0.045932380595324535 -0.06112061574241269 -0.0627015828717557
-0.057622978647358436 -0.068879013283324 -0.011214668229562377 -0.0631777790999746 -0.060849892548043856 -0.051139897854039884 -0.06909722554672008 -0.05939303635449583
-0.0614625079370647 -0.07798747625292776 -0.06647641307208953 -0.06703846805238876 0.044765423544279745 -0.06183828178737191 0.03845807791997572 -0.05467574289871476
-0.04773291490791081 0.08711025626308234 -0.07009193507633701 0.10185106976488432 -0.05481694741201405 -0.05396465874273056 -0.05953235286585302 -0.020731407996068818
-0.0677014565764112 -0.013199437812341324 -0.06280874858314817 -0.06029692970688128 -0.06391272502920814 -0.058782939254375076 0.08383721739772503 -0.06609686775099724
-0.06367086879441425 -0.05904739896532434 -0.06520056352209154 -0.05815669881006319 -0.0576298126074986 0.08461252012691631 -0.057751578072891496 -0.06584582006566445
-0.05935969879656147 -0.008247831207618387 -0.07732291315765236 -0.06591445262472116 -0.06265340755964363 -0.06512619955651039 -0.07104640763005071 -0.06933629567681285
-0.0755315200942829 -0.05735772174310444 -0.01086627509528739 -0.06545336913199815 -0.01010132636087305 -0.011574001807228531 -0.045696059082557014 0.06544003280858358
-0.05819495482730162 -0.06525917965458729 -0.06417952659464435 -0.012752675346402849 -0.06121590791465193 0.004073413812052708 0.10283066364181392 -0.06137124573825198
-0.07556150737862452 -0.06511198441883458 0.019298589212804723 -0.0677851557614562 -0.05915632762851406 -0.01016239552087504 -0.0661776693491198 -0.013863139703958832
-0.06498427253899175 -0.06460864862859104 -0.02452996474027098 -0.07239602348794287 -0.05780625624806711 -0.04762757850244738 -0.060123723225768574 -0.061368450542381055
-0.0636263020178398 -0.0668733419638135 -0.05645198499487961 -0.06554985396124216 -0.056774946810970554 -0.0648743521944155 -0.047165541080764234 -0.009964447915741574
-0.0749785069279621 -0.010585937408980188 0.09226177152275912 -0.06840681384869521 -0.0642984008952179 -0.005993447735239175 0.015467124005798924 0.10502201407615934
-0.06309380238669882 -0.06062476560381218 0.10059636932332554 -0.06306205657201205 -0.050337743055156106 -0.05830537790555209 -0.008461554375042158 -0.06708319795249826
0.04143841232009585 -0.06010023465765029 -0.058225280548462856 -0.06371574484031955 -0.079804384682304 -0.062325983507478144 -0.011050903368954507 -0.0643744368652834
-0.012122296165464556 -0.06964160650244121 -0.07140146973197445 -0.06101476455103356 -0.01037195066255478 -0.009663183311440114 -0.07795308770590109 -0.059697846161061476
-0.05633695865520307 -0.05969024704998876 -0.06044721842212005 0.10285342273996151 -0.07627450119279586 -0.011951875844653456 -0.030195036056282796 -0.06647816691734888
-0.07120173749078082 -0.06940945650886411 -0.06473869026377994 -0.06776291491484741 -0.032841070913430304 -0.04815902796721907 -0.024864812911682764 -0.05909566243387928
-0.07202707235829592 0.065284037469991 -0.06009309627711253 -0.06090073799984407 0.0062151661568959 -0.07401455005516336 -0.05166553055975947 -0.06596009679106854
-0.06171892917404393 -0.01034415497895527 0.017308318685191226 -0.009511767997753154 -0.011694080456047033 -0.056920533619309786 -0.03748950775964734 -0.0642166158638465
-0.06674486960378162 0.025235865946032325 -0.06302870938494844 -0.06180642412115853 0.025338312581629573 -0.01946975000130675 -0.06745047003264631 -0.05259408634300287
-0.04296101618716421 -0.06472463489976642 0.0834744143852631 0.018368919078486905 -0.010135972079519471 0.027747336782699163 0.09714085310208714 -0.06949510471392614
-0.00885882611659486 -0.0513545835597056 -0.060302554665734684 -0.06768019847253619 -0.07410016510948472 0.10248761759008138 0.07305278237649272 -0.06866089121425557
0.09124433784320787 -0.006881734012409935 0.101264189736354 -0.056462657410436205 -0.04083705466844836 -0.06528985647162856 0.001205629569025061 0.10112489906183034
-0.05870247687557788 -0.05180296449557976 -0.06882304961597181 -0.06002948758130787 -0.05690232129262318 -0.012066212675968559 -0.07106411619151114 0.08306812495025581
-0.054071228163020076 -0.05804328280532442 -0.03360072906585756 0.0842805485727526 -0.06937600385759038 -0.07015133722324442 -0.058426429544899225 0.09111368394003043
-0.0760098888488708 -0.009816209365578619 -0.06854570861608351 -0.060684533923587546 -0.04382211318529375 -0.05302468623920953 -0.06113391298473735 -0.06472784528117895
00000000: 7f4b e2f5 66a3 b0bf 7f8a 2a06 c956 a8bf
00000010: 5751 4d6c f7c3 aebf 530b a051 c9f3 afbf
00000020: aa38 9d09 7b2e b3bf 54e8 a4c6 4e2b b1bf
00000030: 6b75 9f71 9c7c bc3f e601 6a03 2251 afbf
00000040: 0a83 fc00 9527 b63f d64f 4dbd 1d21 b1bf
00000050: 9131 c6ef 4894 803f 0d64 26ed acc1 9ebf
00000060: 89a1 d6da 17c4 a2bf 922f 84df 5e07 aebf
00000070: d945 997b c545 b3bf 19a3 29b2 50c3 b0bf
00000080: ef51 e25a d442 afbf 70b4 9c0f e658 b1bf
00000090: 03c5 80fe b59c b03f 4273 00aa df4a 81bf
000000a0: 003b 0650 d7d9 b2bf 3a54 4446 cc09 863f
000000b0: 3576 311c f712 b1bf d834 d2a2 cc50 8dbf
000000c0: 7853 b3cc ec4d b1bf d1d2 cb1b 937e b0bf
000000d0: 56f6 aa52 5596 b2bf c6e0 09af 6fdc 86bf
000000e0: 2c01 e9c2 b264 a7bf bc29 c186 3e63 aebf
000000f0: 0549 d195 3e30 b3bf 4bc7 7bb9 4b12 b0bf
00000100: cefe 284c 325b adbf 1535 a68a 8039 973f
00000110: 8f31 de1e 1506 b0bf 4fc2 713e ea87 acbf
00000120: 042a 6d2e d64f b1bf f199 8ec3 ba68 aebf
00000130: d5c0 a5d4 c646 b1bf aa71 2afb da8b b73f
00000140: e7e5 3eda 94bc b0bf 30fd 8f24 8778 b3bf
00000150: ac43 3b85 2f12 b0bf 39b9 e8ce 1b9f b03f
00000160: e075 5197 8869 88bf ecfb f7f0 7284 a7bf
00000170: 2239 738b 334b afbf b474 d7ff 350d b0bf
00000180: b0b7 9351 c280 adbf 97c0 6e15 0ea2 b1bf
00000190: 6e6e 404a b7f7 86bf 527c 113f 6b2c b0bf
000001a0: 21fd ea94 b727 afbf 6896 9b39 022f aabf
000001b0: fbad f713 5bb0 b1bf b861 8199 c368 aebf
000001c0: 9827 0a8b 0378 afbf aeff 00bc fcf6 b3bf
000001d0: 599a 1924 9904 b1bf 2fe4 dbdb 6e29 b1bf
000001e0: 9681 3a5c 7eeb a63f fcce d56b 44a9 afbf
000001f0: 85db ddf5 c6b0 a33f 1bdb 447f 75fe abbf
00000200: d7c7 f1d8 7270 a8bf 61ce cb95 db4c b63f
00000210: c6c0 dd88 8bf1 b1bf 37ea b365 e912 ba3f
00000220: d263 cd88 f710 acbf 2b31 e178 41a1 abbf
00000230: 11bd 3949 067b aebf 5062 5f3d 9d3a 95bf
00000240: d522 e3f5 e154 b1bf 3634 d68d 4e08 8bbf
00000250: 143b 11f1 3b14 b0bf f1d0 473a 3ddf aebf
00000260: ec76 cc97 955c b0bf 4312 5223 cc18 aebf
00000270: db2e e91a 5b76 b53f 42cb 5b6d b9eb b0bf
00000280: fc0e 2eeb bb4c b0bf f79a f0ee 753b aebf
00000290: 5d16 02f0 fbb0 b0bf 5876 ddfe b6c6 adbf
000002a0: 47fe d8a0 a781 adbf aef9 c686 2aa9 b53f
000002b0: 881d 3b66 9d91 adbf f2a4 c28b 45db b0bf
000002c0: 6433 10fa 6464 aebf 75ae 652a 3de4 80bf
000002d0: 465a 3e37 6fcb b3bf 075f 5b02 c5df b0bf
000002e0: ee9d 73c0 0d0a b0bf 4c3e 3551 1cac b0bf
000002f0: 4cf4 44ed 1830 b2bf 0e92 5b02 06c0 b1bf
00000300: ba42 9fa0 0856 b3bf 3891 1ec6 fd5d adbf
00000310: cc0c 4fc1 0e41 86bf 26bf d54f 8dc1 b0bf
00000320: d1eb ed12 01b0 84bf ee95 f739 1cb4 87bf
00000330: fe9e a14e 7965 a7bf a114 c390 adc0 b03f
00000340: ce08 8da7 bacb adbf 7957 615a d3b4 b0bf
00000350: 72f8 cbc7 116e b0bf 64fa 641c 131e 8abf
00000360: a10c fa04 b157 afbf 6886 b1b1 48af 703f
00000370: e018 5e41 1c53 ba3f d89c b84a 0d6c afbf
00000380: 6614 07bb ff57 b3bf 0f14 a8d3 2dab b0bf
00000390: e89a 1c66 02c3 933f 1354 2633 5e5a b1bf
000003a0: dd27 08f9 bc49 aebf 3716 4aa3 05d0 84bf
000003b0: fd78 940d 05f1 b0bf 10e3 2f1d 4764 8cbf
000003c0: a02f 4f2d cfa2 b0bf 9f07 e640 318a b0bf
000003d0: f373 5311 621e 99bf d3bc 3db9 8b88 b2bf
000003e0: cee5 2d18 c898 adbf a282 1c58 a462 a8bf
000003f0: 46d6 ef61 89c8 aebf 81e3 2b80 af6b afbf
00000400: 9f00 5536 d049 b0bf 2474 b580 9c1e b1bf
00000410: 15d0 b14a 46e7 acbf 8a67 050f e0c7 b0bf
00000420: 570d 9217 9b11 adbf ff31 0605 9b9b b0bf
00000430: 344b e1f0 1426 a8bf 3ccf 5d8f 3d68 84bf
00000440: e493 289b ca31 b3bf 49a9 c077 14ae 85bf
00000450: 7d7c 5cab 779e b73f aabf 4de4 1b83 b1bf
00000460: e2b1 0729 dc75 b0bf b1cf 35e0 958c 78bf
00000470: a508 253e 3aad 8f3f 2331 d103 b9e2 ba3f
00000480: c8c6 d459 ea26 b0bf 062c 3193 350a afbf
00000490: 9b0b 5704 afc0 b93f 2a65 98be d524 b0bf
000004a0: 1a4a 5a60 dec5 a9bf 8b0e 92d6 33da adbf
000004b0: 8757 839a 4a54 81bf c62b 514d 5d2c b1bf
000004c0: 150b 6d63 6a37 a53f 274e ac3c 75c5 aebf
000004d0: fd1b 8337 b4cf adbf 0c57 54d0 ac4f b0bf
000004e0: c0b3 4966 0f6e b4bf 4818 b6f9 30e9 afbf
000004f0: 70c1 7c24 dba1 86bf 3de9 08d5 d77a b0bf
00000500: 7c2e aa0c 93d3 88bf 4f6f 5e46 08d4 b1bf
00000510: 1e9a 62e1 5d47 b2bf a9c0 a3c4 533d afbf
00000520: 7095 21a7 e33d 85bf 3f13 6282 4aca 83bf
00000530: 3cae 51ca bbf4 b3bf 358a ce51 b790 aebf
00000540: f3dc f5a5 32d8 acbf c791 f055 b88f aebf
00000550: 5bac 8314 f0f2 aebf ec25 f316 9a54 ba3f
00000560: 1e4b 24c8 b986 b3bf de73 079f 397a 88bf
00000570: 79fe 7391 72eb 9ebf e1db ce90 b604 b1bf
00000580: c6f7 f0ed 463a b2bf d11b bd71 d1c4 b1bf
00000590: d503 78fd b692 b0bf d7de 700f e958 b1bf
000005a0: 98dd 137b 8bd0 a0bf a3b1 40d4 4ca8 a8bf
000005b0: e67a 1b59 2976 99bf eb59 fa62 c941 aebf
000005c0: 149c 34c0 5d70 b2bf 4f6b e265 74b6 b03f
000005d0: eb7e 73b6 85c4 aebf bfef 05ac 612e afbf
000005e0: 1812 21f6 1275 793f ca42 ea17 9ef2 b2bf
000005f0: f757 2b88 e773 aabf a202 8fca c2e2 b0bf
00000600: 497d b19c 9f99 afbf cf06 b7fa 502f 85bf
00000610: 407b ce9a 45b9 913f dbe5 d1e3 e77a 83bf
00000620: 0293 ece8 10f3 87bf ab4a bb2c b024 adbf
00000630: 63a9 8a23 d331 a3bf 56b9 fe08 8070 b0bf
00000640: 34c0 1f18 3116 b1bf bea2 b24b 6ed7 993f
00000650: 1177 8445 a622 b0bf 0df0 9074 17a5 afbf
00000660: 06e6 7e5f 49f2 993f 7350 11ce e0ef 93bf
00000670: ecd9 e31a 6f44 b1bf edc5 9cb1 9ced aabf
00000680: 53b8 0d7f fcfe a5bf 77d9 232e cb91 b0bf
00000690: 9463 d647 945e b53f 1be4 d14a 4dcf 923f
000006a0: d2f4 c124 2bc2 84bf e793 2140 cc69 9c3f
000006b0: 3cd3 2d13 39de b83f f678 fa61 6eca b1bf
000006c0: 5122 9d83 9324 82bf 24fb c6e1 254b aabf
000006d0: 7625 4ff8 f9df aebf b3bd 064f 7d53 b1bf
000006e0: faff c579 3af8 b2bf c65a cbe5 a03c ba3f
000006f0: e957 304f 96b3 b23f 7989 479a c293 b1bf
00000700: 2a54 fbf6 c95b b73f 4080 5e68 0530 7cbf
00000710: b16f 2c2f 73ec b93f 8fd0 0b66 ace8 acbf
00000720: 932a 882c 98e8 a4bf b961 4e06 d6b6 b0bf
00000730: 77c0 7be4 c6c0 533f 2228 4846 52e3 b93f
00000740: 36e6 bf44 400e aebf 8150 b00c eb85 aabf
00000750: fdc3 4f2b 639e b1bf 7e2a ea5b 2fbc aebf
00000760: c05e 0912 4d22 adbf 9490 a3a6 2bb6 88bf
00000770: f330 f606 4231 b2bf 1e5b 00e0 f343 b53f
00000780: 49bd 3a59 39af abbf 6c7d cd62 d9b7 adbf
00000790: a352 eb60 1d34 a1bf da14 cff7 6893 b53f
000007a0: a20d b233 a0c2 b1bf 19fe 2423 70f5 b1bf
000007b0: 961a 3ca8 11ea adbf 2392 bdf4 3953 b73f
000007c0: 764b c752 6275 b3bf 5219 9151 851a 84bf
000007d0: 8587 c928 368c b1bf a34d 2611 0b12 afbf
000007e0: 94e4 f11d da6f a6bf b05e 8e3a 0d26 abbf
000007f0: 6f54 e4b9 f14c afbf ca8a 9f0a 0192 b0bf
