data and plots/B_0.npy (npy, 2176 bytes, 1 tensors)

array f8 [256]
-0.2089118864705157 -0.6566366047897326 -0.5254688104064047 -0.16999194640873658 0.3310532858841366 0.11104647289242595 -0.24794089650744644 -0.20879626272717114
-0.3359240385584904 -0.38294597399437635 0.27142213755424266 -0.6976260692273507 -0.8991253504493717 -0.05928526201843946 0.18783031264912212 0.2668836695211606
-0.07980024725993899 -0.9424919085200903 -0.5654678373355422 -0.7237473701059347 0.18753740885350018 -0.4588409856387396 -0.8137547141212562 0.16765025993490001
-0.0902952623409169 -0.7557677363399796 -0.34153131505245826 -0.36830287441695814 -0.4743610044771005 -0.4365188352339379 -0.2918339600363291 -0.511588406355053
-0.4463769738066398 -0.7134953362059945 -0.3961499599958421 -0.2571029743337039 -0.2056399251762155 -1.1456193221147455 -0.2773789614965662 -0.6490828827763089
-0.0980814145641451 -0.7142764738570798 -0.07697211478598466 -0.4990645819386224 -0.5931090019577794 0.44602620348928235 0.09055667330208109 0.09790780246011484
-0.039075853930618215 -0.11347839614079915 0.292017284970495 -0.8177047843747991 0.40345840953092044 -0.32560987986963674 0.17246558652618246 -0.3808263420764101
-0.472006302612118 -0.45283992963012504 -0.35029578448028753 -1.0182979888638735 -1.1129355272645305 -0.735329954736189 -0.5524948331133898 -0.21827322524173373
-0.7197939959380144 -0.9074318144656501 -0.17048117247277175 -0.6509921163452729 -0.412339932352922 -0.38780238236986864 -1.0670766575536494 -0.25971919439116575
-0.8703364669354048 -0.23804418362587074 0.14902613650722016 -0.18340804684893805 -1.3403747547925016 -0.5372501132876613 0.06704719292652322 -0.5923805749551706
0.19394641689026718 -0.5237179346312616 -0.6621780160388836 0.13807207333470026 -1.0681870735705972 -0.7732147787831277 -0.0835416224036005 0.09982449866560171
0.06634188263535619 -0.48066794034938987 0.17366951392121802 -0.15685791459852994 -0.26103590405511995 -0.07578506947778015 -0.6276327809375165 -0.8030044927356347
-1.0397623853935123 -0.08133830850701984 -0.7320942561470382 -4.509314339266584 -0.7813726902272757 -0.15746185523410722 -0.5468234672172625 -0.5622749927026321
0.17473451885862576 -0.6959115841620327 -1.613655465622062 0.09320086475698873 -0.497714484506846 -0.9369842491400183 -0.15891340092595077 -0.6020418782994723
-0.9320276834998894 0.1900425173827063 -0.37837375740288093 -0.6973530805763919 -1.1027814009430295 -0.4108690575047897 0.173042170734245 -0.07076173891084452
-0.2964292923913335 -4.168283114484455 0.11994071961427524 -0.2238355616237846 -0.09114687958344557 -0.19631701372314575 -0.7347942525183196 -0.19742732003549662
0.1203977394663228 -0.45588929478825313 -0.41246659633566635 0.1932883410062814 -0.8657525089350072 -0.44250177518149736 -0.19848628625543696 -0.3436630566087157
-1.0752948679625107 -0.29610826576563715 0.1542506236413606 -0.36846588789427975 0.18567686256521113 -0.2580055370688532 -0.25191261156166084 -0.6153886581266822
-0.3571553419526544 -0.15037163516397475 -0.3564858867996286 -0.9054454486378821 -0.4884258997092724 -0.6727966782866089 0.12604186100177223 0.10958420039624596
-1.4471518264656702 -0.5383704977618728 -0.00652329791383764 -0.28369493488178776 0.12368815548083191 -0.44878302695036104 -1.8196727760900915 -0.43638596091981147
-0.24297269269486044 -0.24137937721914485 -0.460717215771623 -0.46160632290621834 -0.3977387101857009 -0.5670153984842358 -0.01964017356270501 -0.8079539388722301
-0.780537974243173 0.28081718879847695 -0.5974477168481623 -1.9231148105982823 -0.58858796313852 0.03997601015423881 -2.057661826099339 -2.0936327787567746
-2.307646779267779 -0.3284931273580945 -0.5908195726562354 -0.6766006695831829 -0.41323517286293177 -0.4389703415410917 -0.6328682475452608 -2.1417658377425157
-0.7059792442015734 -0.29954048776071507 -0.7840766143259996 -0.4000229329659343 -0.31363487909431 -0.08794161664806475 -0.42388937377740865 -1.3108617124325017
0.24618011455902092 -0.27604976764587524 -0.6121865078034536 -0.28517232633659795 -0.908601313770155 -0.5444558514120029 -0.3179840914094447 -0.5174688561500022
-0.33620312699290966 0.3457816165868318 -0.6896121476023696 -0.41444560807612557 -0.34321101331496345 0.20701759146215123 -0.6307556376026494 -0.16377874555757005
-0.3528294792857064 -0.34674328967412277 -0.08388965091990605 -0.15602021850205122 -0.6611754538907093 0.26506566911996515 -0.33554737610098717 0.29750277549271315
0.08765649830970021 -0.2698064434052342 -0.23727763908052057 -0.06402268818591733 0.13943846983226518 -0.20431073236122813 -0.11468077460630947 -0.6752123669384625
-0.2609012992939741 -0.5995972429133211 0.16767723095027706 -0.4946100729928344 -0.7991230349480952 -0.08675610373723953 -0.607355499317519 -0.27970349387497323
-2.349085183293791 -0.010140133079476499 -0.005216247591720839 -0.5454362694090555 0.0557381765074849 -0.7184574143580713 -0.4063598785224111 0.2208162800135919
-0.07521770789369735 -0.09175182436329464 0.16718898802792082 -0.2838181007645059 -0.5724763520116757 -1.3354618499232676 -0.41990164207313857 -0.12654782418765476
0.028956092215731276 -0.6255535651619002 -1.9924856143182323 -1.0002984209235433 0.24359653019359823 0.05512750330683844 -0.8720633009425035 -1.108975761543514
00000000: cf79 11ec 9fbd cabf 47b5 ddc4 2a03 e5bf
00000010: dc6e 78f7 a3d0 e0bf 1b57 34cd 4bc2 c5bf
00000020: e0c3 061f fa2f d53f 16bc 68a9 8a6d bc3f
00000030: 5492 ebfc 86bc cfbf 4159 f8ff d5b9 cabf
00000040: 2622 e389 c77f d5bf a434 9cd4 2f82 d8bf
00000050: 3b2d 0df5 fa5e d13f 6164 05e8 f352 e6bf
00000060: 2ae8 e586 a2c5 ecbf c50a 024b a35a aebf
00000070: 7141 03dd d20a c83f c682 1b3e 9f14 d13f
00000080: ebb3 31fc c96d b4bf 45d4 7aca e428 eebf
00000090: d878 8901 5018 e2bf d078 a53e f028 e7bf
000000a0: deb3 e6ce 3901 c83f ab7f d894 a65d ddbf
000000b0: 64bb 8353 470a eabf b40b cb4f 9075 c53f
000000c0: 28ec bc1e 971d b7bf 1f78 ded1 3f2f e8bf
000000d0: 9a73 2d29 a6db d5bf 3d31 2938 4692 d7bf
000000e0: d084 2e42 ee5b debf d7bc 5ab2 ecef dbbf
000000f0: 10f7 8d58 68ad d2bf c5d8 49a6 ee5e e0bf
00000100: 43f7 0bba 7091 dcbf ff4d db2b f4d4 e6bf
00000110: 3e9b 9f5c 855a d9bf ecec 9d08 6074 d0bf
00000120: 261e b1b8 6852 cabf 5860 22ed 7454 f2bf
00000130: fb79 0eb0 93c0 d1bf 605d 3d77 49c5 e4bf
00000140: f0fe e513 dd1b b9bf 6196 f055 5adb e6bf
00000150: f9b2 b5cb 71b4 b3bf c12b 8192 acf0 dfbf
00000160: 4ce6 cbba bffa e2bf 0450 497d b18b dc3f
00000170: c259 44de b82e b73f 55e4 9659 7c10 b93f
00000180: 84fb 6315 c001 a4bf 092e 3a90 eb0c bdbf
00000190: c528 3444 69b0 d23f 1285 5539 a32a eabf
000001a0: 89d0 8e38 43d2 d93f 60da 52d2 cad6 d4bf
000001b0: 6b5f e832 5a13 c63f 761a 2b73 755f d8bf
000001c0: 3165 4eec 5935 debf a365 0554 54fb dcbf
000001d0: 7a3f 9102 3f6b d6bf ea0b fcd4 f24a f0bf
000001e0: d685 c27b 95ce f1bf 118e 6baf d287 e7bf
000001f0: a5ca eda4 09ae e1bf 63ba 0086 60f0 cbbf
00000200: 5426 0d6b 8d08 e7bf 665b cf71 ae09 edbf
00000210: 6159 2dba 53d2 c5bf 4b04 356b edd4 e4bf
00000220: 0c9a 1207 c763 dabf ecb9 6515 c1d1 d8bf
00000230: 6249 28f9 be12 f1bf ee6c 8341 3d9f d0bf
00000240: b61e c0dc cbd9 ebbf 8b8b d657 3b78 cebf
00000250: 6b1c 46d7 4913 c33f df0b 8535 ea79 c7bf
00000260: 2a7c 83cc 2c72 f5bf 38f8 4a26 2731 e1bf
00000270: fc73 e83c 012a b13f f5fa 861b c8f4 e2bf
00000280: 912b dc76 3cd3 c83f e73c 321d 4cc2 e0bf
00000290: a58c 60f3 8f30 e5bf 5f52 bb7f 58ac c13f
000002a0: 3aee 2f54 4b17 f1bf 7d09 75eb 2cbe e8bf
000002b0: de07 14d8 fb62 b5bf 27bd 1b2d 198e b93f
000002c0: f51f 4618 c8fb b03f e052 0277 43c3 debf
000002d0: e54a 4d79 cd3a c63f a4e3 a88e eb13 c4bf
000002e0: fbe7 bfef cfb4 d0bf 9da1 ee7a a666 b3bf
000002f0: f7c5 8057 9115 e4bf 5de6 5a7a 36b2 e9bf
00000300: 7004 0ee2 dda2 f0bf 9019 f35e 96d2 b4bf
00000310: 13b6 f7ee 506d e7bf a422 bab2 8909 12c0
00000320: 2270 d04c 0101 e9bf 828a 4cc7 b527 c4bf
00000330: 6445 8ced 937f e1bf b586 2020 28fe e1bf
00000340: af73 fd61 b35d c63f 7c45 dc5e e844 e6bf
00000350: 0bbc bd64 88d1 f9bf 6716 170a 03dc b73f
00000360: 29f4 6cda 8dda dfbf 458d 5d64 c6fb edbf
00000370: 91c1 ef39 4657 c4bf f2cb 4354 ed43 e3bf
00000380: 4128 73b8 2bd3 edbf d90d 812e 5053 c83f
00000390: d470 6d90 4637 d8bf 04e5 5a68 b750 e6bf
000003a0: 7dff 3a1c fea4 f1bf 77f8 3abb ad4b dabf
000003b0: 7cf3 10f0 3e26 c63f 7b1f 6efa 701d b2bf
000003c0: b56b 1991 b2f8 d2bf 13b8 a468 52ac 10c0
000003d0: 72b7 335c 6fb4 be3f b08f 6dc8 a4a6 ccbf
000003e0: 4f7f f1e2 6655 b7bf fe6d cb78 ea20 c9bf
000003f0: bd5b 7b3c 6f83 e7bf 52d7 7165 4c45 c9bf
00000400: d72a 85e1 62d2 be3f 3c92 ed4a 4a2d ddbf
00000410: 4f10 7d4b da65 dabf 32f8 a81f acbd c83f
00000420: 25c9 099b 3eb4 ebbf fae4 34f7 f251 dcbf
00000430: dcf6 15a6 ff67 c9bf c794 3e55 93fe d5bf
00000440: 3a4a 3764 6834 f1bf dd79 6215 70f3 d2bf
00000450: 12b0 f603 7cbe c33f 65a4 8cf2 f194 d7bf
00000460: 3db5 2b6a 42c4 c73f f072 f9a7 2983 d0bf
00000470: c1dd 0613 561f d0bf 3778 1f8e 43b1 e3bf
00000480: 72d0 5114 a2db d6bf 873d a3b3 603f c3bf
00000490: c18e 522e aad0 d6bf abc6 c6bb 68f9 ecbf
000004a0: 2a53 71b4 5e42 dfbf 3f26 43e6 8c87 e5bf
000004b0: cafc 76c3 2322 c03f 3135 dccc b50d bc3f
000004c0: 7d44 70ac 8827 f7bf 6e97 20c4 543a e1bf
000004d0: ee61 3b73 2cb8 7abf 92eb d6cc 0e28 d2bf
000004e0: 2957 b1e6 06aa bf3f a51b f071 dcb8 dcbf
000004f0: d4a7 6b33 611d fdbf 4b62 a561 bfed dbbf
00000500: 9c05 79ac ba19 cfbf b9e3 8af9 84e5 cebf
00000510: f75e 9c0f 647c ddbf d793 203f f58a ddbf
00000520: a173 2610 8d74 d9bf b32e 1a7a fd24 e2bf
00000530: 8aee 8ebc 8d1c 94bf f82d 0438 c2da e9bf
00000540: f722 15c6 2afa e8bf ccd2 82a8 e8f8 d13f
00000550: e3d8 9dac 4a1e e3bf d290 1f09 14c5 febf
00000560: 6cf9 8f6c b6d5 e2bf a25a 7950 bc77 a43f
00000570: 2b98 4a67 1776 00c0 69c0 d48a c2bf 00c0
00000580: 1366 bd83 0f76 02c0 8dae bd09 0806 d5bf
00000590: b3a5 cc72 fee7 e2bf 95f7 8972 b6a6 e5bf
000005a0: 6834 40f0 7172 dabf e04e 350f 1718 dcbf
000005b0: 7f47 3ce9 7440 e4bf 6a5a a620 5622 01c0
000005c0: 8d04 b0c8 6197 e6bf 74a6 b0dd ab2b d3bf
000005d0: 98d5 02d7 2717 e9bf aa46 afc9 f999 d9bf
000005e0: 1414 2607 9812 d4bf 77f7 757f 5783 b6bf
000005f0: aabc 5fe5 0021 dbbf 519e 8721 4af9 f4bf
00000600: 856f 7a7a d482 cf3f 2fe0 06a5 ccaa d1bf
00000610: 5e2f c228 0897 e3bf 60c1 d56d 4340 d2bf
00000620: bada f70f 4313 edbf bdc5 7dad 2e6c e1bf
00000630: 241e 50f2 d959 d4bf f59b bbd8 1a8f e0bf
00000640: bed6 cf1e 5a84 d5bf de19 b337 4921 d63f
00000650: 4e0c 9c7e 4d11 e6bf 4719 2adf 4686 dabf
00000660: 7f25 7453 2bf7 d5bf 8f68 836c 8d7f ca3f
00000670: 17ac 6872 262f e4bf be8e f9b1 b3f6 c4bf
00000680: 4632 a618 c294 d6bf fd7f 50c4 0a31 d6bf
00000690: 9e81 2ccb ca79 b5bf 2a94 fd73 78f8 c3bf
000006a0: 1a1d ec6c 5928 e5bf 2968 0aff d5f6 d03f
000006b0: c630 a7b3 9b79 d5bf bd77 cd14 490a d33f
000006c0: 86a4 8501 a870 b63f 4e3c ab3e 8244 d1bf
000006d0: 7c22 f619 1d5f cebf ace4 f577 ca63 b0bf
000006e0: 2def dda9 1ed9 c13f e14c dba4 da26 cabf
000006f0: f3fe 6920 b85b bdbf d55f 3bf7 569b e5bf
00000700: d0e5 fc5c 9bb2 d0bf 13b4 a28e e62f e3bf
00000710: 438e 9b8f 7276 c53f 7bb0 f101 b1a7 dfbf
00000720: 7ba2 9278 6a92 e9bf c1a2 47e4 a535 b6bf
00000730: f0a9 d3cc 746f e3bf cd46 b17b a9e6 d1bf
00000740: b71e 2e2c edca 02c0 cda4 a09f 59c4 84bf
00000750: 384a 07cd a15d 75bf a040 65c3 3674 e1bf
00000760: 7e05 7ada b689 ac3f 8892 4767 9afd e6bf
00000770: 2b42 2add cc01 dabf bd97 8a36 b543 cc3f
00000780: 63c7 7bbb 7741 b3bf 8f1a fd2c 0c7d b7bf
00000790: 9466 eae1 7266 c53f fbf7 3265 132a d2bf
000007a0: f7f3 33ed b951 e2bf 159e a73e 0d5e f5bf
000007b0: b969 0f23 abdf dabf 280a 2217 b832 c0bf
000007c0: 469a 5874 aaa6 9d3f b687 08e9 8804 e4bf
000007d0: d9f4 7398 38e1 ffbf 85b6 c1ea 3801 f0bf
000007e0: d6df 4ccd 2b2e cf3f ec41 a00f ac39 ac3f
000007f0: 1fe0 b24b f1e7 ebbf 6a2d 3e5e 5dbe f1bf
