data and plots/B_1.npy (npy, 2176 bytes, 1 tensors)

array f8 [256]
000000 fb 82 99 c9 e3 fd d4 3f 25 17 31 0d a6 df c9 3f
       0.32799620330301565 0.2021377148068321
000010 6a d2 d9 fc 97 82 c4 3f 57 e0 c4 09 1d bf d6 3f
       0.16023540350183235 0.355414638080679
000020 40 e5 74 56 6b 18 99 bf 47 94 4d 04 1c c4 bf 3f
       -0.02450721469106054 0.12408614258818416
000030 0b a3 4d 98 d2 6c da 3f 62 7f bf e7 93 fa b1 3f
       0.412892006620084 0.07022976310645171
000040 b3 1d c9 8e 62 74 98 3f 3d 0a 81 d7 0b ea 72 3f
       0.023881473507825834 0.004617735154229194
000050 98 cc 7c 4c 3d 41 d5 3f 5c 3e 4f 7f 47 3a cb bf
       0.3321068999241077 -0.21271604267393485
000060 0d bf 16 53 35 42 d3 3f 3c 28 1b 21 7a 92 b0 3f
       0.3009160338797166 0.06473506267789814
000070 d9 f2 f4 30 e3 5a c0 bf c0 71 4b 1b f3 24 ac bf
       -0.12777366533727877 -0.05496940334498701
000080 8c 2f d6 30 2d 00 cd 3f 7a 97 c3 d6 b0 35 9e 3f
       0.22656788715937315 0.029501689060360083
000090 a3 11 f7 9b c8 aa b0 bf 7e bd 4d f2 ed 6d d2 3f
       -0.0651059513830377 0.28795956289737734
0000a0 82 92 8e c7 02 40 d5 3f 75 d3 5a 41 1f 5e bc 3f
       0.33203191268902554 0.11081118913246064
0000b0 77 80 b8 a6 bb 6b b2 bf 37 7d 68 46 4f 44 ce 3f
       -0.07195637531595077 0.23645964563272923
0000c0 4d 7c 5d d9 1e 5d d8 3f 12 fe d5 79 ad 5c c9 3f
       0.3806836245257202 0.19814079712885807
0000d0 96 d9 66 48 89 bd d2 3f 4e 98 b6 b3 62 1d a7 3f
       0.2928183753059782 0.045146068990377416
0000e0 c0 33 2b fb 7d 4d c8 3f 79 2c 93 50 47 e1 b7 3f
       0.1898648716363862 0.09328122822914676
0000f0 a9 61 79 c9 f3 5b c7 bf f0 01 07 f8 61 c7 c7 3f
       -0.18249366128544622 0.18577217684470737
000100 7f d4 ef 90 39 d8 d8 3f ea b9 69 0a 95 1a 05 bf
       0.3881973185919562 -4.0252374039140827e-05
000110 60 23 50 a3 80 55 de 3f 16 be a0 30 b6 28 c7 3f
       0.4739686579564957 0.18092992185982898
000120 2d 19 36 10 a1 13 b2 3f 34 76 e4 e3 64 6d b8 3f
       0.07061201711448879 0.09541922153263088
000130 43 a0 e6 f9 1e 53 a2 bf ac 46 12 9b 85 4b d6 3f
       -0.03579041290805709 0.3483594908112575
000140 8c 36 15 94 75 e8 64 bf 51 77 f7 c0 63 b8 c5 3f
       -0.0025522514776302237 0.16968962595177087
000150 27 de 02 15 f4 87 c6 3f 0d fb 6d 7b 50 9d 84 bf
       0.1760239698976289 -0.010065678374073817
000160 43 c1 69 be 0d 81 b4 3f 59 0d fe c4 0a 81 bb 3f
       0.08009420298345042 0.10743777570137548
000170 0e 44 4a 80 98 19 aa bf 2d f7 ff a4 bb 64 cb 3f
       -0.05097652975121757 0.2140116267836957
000180 73 79 37 e2 77 2b bc bf 7a 9b bb 8c 0c 39 a4 3f
       -0.11003827355259492 0.039497749499608895
000190 56 ed d3 16 31 5e bf 3f c6 7f 7e b5 ee f5 94 3f
       0.12253100211448972 0.020469407870791455
0001a0 44 70 5d a2 84 cb 3f bf 12 51 94 83 a7 f4 da 3f
       -0.00048515308514196867 0.4211825165705402
0001b0 b7 5b 86 00 9a 9d b6 3f 56 90 72 8a 5d 47 bf 3f
       0.08834230912030604 0.12218269949022562
0001c0 7a 41 45 a9 d6 e4 a4 bf a8 0e a1 4c e9 06 c6 3f
       -0.04080839935579923 0.1720859169164346
0001d0 88 d3 2e e8 54 83 d3 3f 61 6a 90 47 9c d3 d4 3f
       0.3048908488665849 0.3254156779163733
0001e0 28 c5 87 3d d7 c4 b0 3f 7e 7b 92 bd 4b 7a b4 3f
       0.0655035519810282 0.07999108675219976
0001f0 a8 bf f7 f1 9d 8c dd 3f b3 0c f0 f9 91 3f b7 3f
       0.4617075789419638 0.09081375457758405
000200 1a cd 23 10 d3 8a a0 3f 2c 70 7c af 9e df b4 3f
       0.032309146614261944 0.08153716835335051
000210 48 4c c2 8f 7e a3 ca 3f f8 b2 89 d0 9a 6d c0 3f
       0.20811445254784844 0.12834487135423678
000220 e9 bb 5e 4b 17 8e 91 bf 1c 37 3c c1 79 d8 d7 3f
       -0.0171435966255408 0.37258762236239007
000230 73 01 02 e4 cf 21 84 bf 36 5d ca 00 d5 e4 82 3f
       -0.009830116410967737 0.00922552498495453
000240 50 af 46 93 29 f4 c3 3f 3c 5e 41 b7 90 3e c5 3f
       0.15588874522415574 0.16597184131636478
000250 1a 4f 20 bf be 70 91 bf e0 35 cf 15 94 4e c6 3f
       -0.01703165093938628 0.17427302422440416
000260 46 7c 45 06 2b bf cb 3f a4 78 52 ae 77 57 47 bf
       0.2167714863416867 -0.0007123312358492573
000270 8b 8e ff 05 5d 58 e5 3f 00 6a 5d 2b 34 88 d5 3f
       0.6670365445283591 0.33643821940282237
000280 92 45 9e 03 f3 07 92 bf 34 8a 5f 0d 3f d9 93 bf
       -0.017608449073639294 -0.019383416358218677
000290 67 4d 7b 87 26 81 c0 3f d3 da bb 2b de 80 f5 3f
       0.1289413606196874 1.3439618786193719
0002a0 28 6a ca d3 8b 6c 79 bf df c5 88 28 1d e7 b1 3f
       -0.006207033348483416 0.06993276824575599
0002b0 8d 1b e7 8e f1 11 c1 bf 94 15 2a ee cd 5b c2 3f
       -0.13336009481119185 0.14342664841767017
0002c0 ce 2a f2 28 2b dd b6 3f 48 4f 62 ae ac 2e e0 3f
       0.08931226491601338 0.5056975751817641
0002d0 e9 46 34 76 fb a4 9f bf aa 20 ff f8 4f 99 96 3f
       -0.030902794923412556 0.022069215366884144
0002e0 71 ec bf ab 0d ae 70 bf a6 a8 5a 22 7d 3f c1 3f
       -0.004072240259115665 0.13475002458045998
0002f0 a1 90 1f 53 38 4f b9 3f 19 ee c5 89 25 3e b2 bf
       0.0988650515496965 -0.07126078237154622
000300 a3 06 ee dd 4a 67 a6 3f ea e3 89 7d 1b 1d c9 3f
       0.04375680884460322 0.19620078687492476
000310 08 e9 38 47 de b4 d5 3f 8b 38 01 1d 12 94 bb 3f
       0.33916432338050173 0.107728130418055
000320 a2 a3 74 8d 9e e3 c0 3f 0e 4c d9 09 63 18 df bf
       0.13194639117253099 -0.48586345636175643
000330 a9 e2 58 8e bf 56 6b bf 10 81 5e 93 4e 05 b1 3f
       -0.003337263234041228 0.06648722741966062
000340 4e 20 63 e9 59 9d c6 3f 2d b9 d7 71 be 72 ca 3f
       0.17667697807178445 0.2066267066833886
000350 17 67 e0 6b dd ec d4 bf 53 49 25 71 ef 7a c5 3f
       -0.3269570878488692 0.1678141882390017
000360 5c 15 15 e7 10 6e c5 3f 4c 4a 33 fc c1 6e d4 3f
       0.16742144854849073 0.31926011685314815
000370 f4 18 93 10 6d bb af 3f f1 5c 7d 29 39 5e d5 3f
       0.061976822160021344 0.3338759331868025
000380 93 8d 96 04 31 d3 d1 3f ec fd 85 d6 58 0f d9 3f
       0.278515104752125 0.39156170796920153
000390 6b 2e 6f 8b a1 c4 e0 3f 3c 34 db 1a 26 9a be 3f
       0.524002811749097 0.11953962474508811
0003a0 78 52 f0 cb 33 f8 c0 3f 73 da 3c 9d b3 72 bb 3f
       0.13257453401515185 0.10721895779429662
0003b0 78 32 d3 6e 75 e0 51 bf b6 5d 89 3e d5 cb d5 bf
       -0.0010911127858889407 -0.34056597811783307
0003c0 18 c8 ba d0 35 0f bb 3f 37 65 ee 44 58 a1 e6 bf
       0.10570083948076137 -0.7071954103768466
0003d0 c8 70 0d cd 29 69 d8 3f 66 17 2c 2e 16 e8 d1 3f
       0.3814186575380174 0.27979044445998225
0003e0 2f 83 4b 89 7a 59 bd 3f 54 01 85 81 fa f5 b1 3f
       0.11464658595970144 0.07015958463762689
0003f0 7f 84 40 04 99 d1 c9 3f fe 20 47 23 d4 83 b7 3f
       0.20170891482942818 0.09185529576564375
000400 8f c0 04 79 f6 8a b9 3f 20 d4 3c b5 b2 c0 7c bf
       0.09977665381006971 -0.007019708707777489
000410 dc 6c d6 f1 00 1a dc 3f 80 1f b0 c7 e9 8c c8 3f
       0.43908713929131493 0.19180032968892746
000420 1d 9b ee 62 f3 58 d6 3f e6 06 b8 20 be 43 cb 3f
       0.34917912160237724 0.2130048427352939
000430 62 4c b0 e2 eb 42 c5 3f ff 52 b1 f4 8d c0 a4 3f
       0.16610477989943023 0.0405315743634329
000440 df b8 53 0b 7b 81 9d 3f ec 02 31 c1 c2 2d d1 3f
       0.028814241949412952 0.2684180151591551
000450 2e dc ee d8 04 41 6c bf 62 58 d6 1b af 9e c1 3f
       -0.0034489721942594564 0.13765515193216787
000460 1e 0b c0 dd 37 a4 a6 3f f0 f6 8c 26 a9 f1 c4 3f
       0.044221635645973686 0.1636249006496011
000470 d9 83 cc 9f fb 21 dd 3f 0c db 5c b7 60 1d b8 3f
       0.4551991520439152 0.09419826962117045
000480 96 27 79 f0 d6 e3 68 bf 25 06 8f ef c9 38 c1 3f
       -0.003038329890647294 0.13454555699540652
000490 d8 f5 97 24 7b ac df 3f 94 7a fe 65 3e ae bb 3f
       0.49490240644067063 0.10812749853219322
0004a0 07 a3 7d e8 27 de db 3f 7e 3c d3 b1 82 7a 9f 3f
       0.4354343195359864 0.030740778068147005
0004b0 ad 3e 64 b8 ba 88 da 3f bf b8 91 56 26 e8 c7 bf
       0.4145952988337552 -0.1867721483899398
0004c0 ac 22 66 1a b6 f2 d8 3f 79 2e 9b f6 fa d8 c2 3f
       0.38981392457985 0.14724671403233794
0004d0 ee 64 4b eb 0c a1 e2 3f 26 68 1b 7c 03 a8 93 bf
       0.5821594806285739 -0.019195608568090126
0004e0 a5 f7 a8 25 41 96 b9 3f b6 01 62 d2 38 a5 c4 3f
       0.09994895142969414 0.1612921740779833
0004f0 6b d9 a5 fe 4a f4 c1 3f f0 f2 99 e9 56 ce b0 3f
       0.14026772912957183 0.06564849093588143
000500 73 08 73 d2 ba aa de 3f 88 2d 09 66 00 fd b4 bf
       0.4791705184144412 -0.08198549738988536
000510 ba af 2c 53 99 5a e9 3f b2 7a 0d 99 e0 92 b9 bf
       0.792309439134889 -0.0998974202789025
000520 3f 71 62 6a 83 d4 00 40 90 f9 26 e4 80 6f 99 3f
       2.1037662802974917 0.02483941452532573
000530 7c 81 77 83 bc 83 aa 3f 45 96 86 e3 7c cb c2 bf
       0.05178631882495474 -0.14683495626120383
000540 a3 86 68 e7 11 12 bc 3f d0 b1 49 ea bc 3c ca bf
       0.10965072536103064 -0.20497857513272644
000550 55 38 f5 a8 a7 eb dc bf 27 98 01 99 8e 7d c5 bf
       -0.45188323497575783 -0.16789419623381827
000560 23 02 78 d0 cb dc f6 3f 28 12 53 20 46 ba b5 3f
       1.4289053099929638 0.08487356461689244
000570 d1 7f 78 c2 6c bf dc 3f 90 7e bb b2 8c 70 a5 3f
       0.4491836451652463 0.04187431031982414
000580 20 99 45 90 04 ca db 3f 87 2d 4d 57 91 92 aa 3f
       0.4342051896004637 0.051899473101538134
000590 50 f6 8a 5f 54 9a b5 3f 31 21 99 5e 0c ff d0 3f
       0.08438613255108263 0.26556691396810367
0005a0 5e fe 89 3b 1f c2 d6 3f 7e af 57 f6 67 76 be 3f
       0.3555982667385019 0.11899423374387472
0005b0 bf 8e 00 03 18 f6 da 3f ba d0 59 8d 1a 5e c5 3f
       0.4212703732793947 0.16693431760689298
0005c0 fb d7 9d d8 a0 1c b4 3f d9 a5 6d 4c ab 15 d8 3f
       0.07856183327189108 0.37632257903768856
0005d0 63 a8 12 a8 8e 73 af bf 5e 06 5d f6 8d 5a b5 3f
       -0.06142850686713144 0.0834130026314823
0005e0 cb 7f 61 53 f0 10 c0 3f 43 d6 ac 1a 07 da e0 3f
       0.12551693030672903 0.5266147156714357
0005f0 fb f7 5e 9b eb c4 6e bf 15 61 78 e3 68 f2 bc 3f
       -0.003756008310090484 0.11307387879822202
000600 e2 c1 d5 49 a0 4b c2 3f eb 07 d2 aa fd c4 d1 bf
       0.14293292622779946 -0.27764836961443845
000610 88 e5 9e 44 1d 82 69 3f 4f a7 6a d2 37 fd d0 3f
       0.003113801159056965 0.2654552035188446
000620 f6 8d 72 73 35 1c d8 bf eb 43 3f e2 06 a7 63 bf
       -0.37672172807853543 -0.002398980564955346
000630 3d ac 05 a4 9e 1a c3 3f 24 a2 42 02 ff 78 a2 bf
       0.14924986847776892 -0.03607937719909085
000640 08 c5 46 26 cf 08 b7 3f 06 29 84 59 d6 f4 d8 3f
       0.08997816738589759 0.38994368306943306
000650 7b f4 40 dc 4a e6 5b bf 4c 65 fa 2a dd 5b ae bf
       -0.0017028552110922846 -0.059294616218901725
000660 c7 4a 12 5b 7b 4d a5 bf b6 61 c1 ed 2b fd 9e 3f
       -0.041606764666672506 0.03026264799732
000670 8b 1e 8e fc ec 50 8b bf e0 e7 45 f3 26 31 d8 3f
       -0.013337947327968244 0.37800000912795717
000680 a4 f1 14 46 c6 68 ad bf 34 55 0d 83 27 f4 cc 3f
       -0.05743999104967948 0.22620099925067338
000690 54 42 a7 08 a0 4a b1 3f 17 7b bd 20 cd ce c2 3f
       0.06754493914855547 0.1469360742439327
0006a0 83 f2 8e 81 76 4b b9 3f 8e 5c 3b 94 3a 68 a6 3f
       0.09880772269293385 0.04376395282241062
0006b0 b9 a6 f1 0c 58 f2 c4 3f 4b 31 cb b7 10 64 04 c0
       0.163645750351227 -2.548860011948056
0006c0 69 a5 61 9f 71 e6 d7 bf cb 0f 7d 57 6b 5c ea bf
       -0.3734401756724624 -0.8237816532859993
0006d0 20 39 52 ec 87 46 c5 3f cb 99 13 c0 39 58 ba 3f
       0.1662149337684662 0.10290871562356256
0006e0 c2 89 bb cb 0e f0 65 3f 3d c4 df 9f 65 e9 bd 3f
       0.0026779450398503888 0.11684260514427165
0006f0 26 0b 3b f8 f7 49 c6 bf 44 63 d5 9a df 0a aa bf
       -0.17413234348904288 -0.050864207888202034
000700 e4 2b 2e 17 67 d3 89 3f 3f d5 49 66 4f ee c4 3f
       0.012610249895962107 0.16352264875937725
000710 a9 f1 03 8e bd c6 cc 3f 71 8d f2 d0 d1 b3 9b bf
       0.22481507715555196 -0.027053144815579914
000720 d4 f7 9c b6 2d c6 cb bf 66 af 63 ae fc 3e c5 bf
       -0.21698542992265735 -0.16598471179110702
000730 82 b2 d5 5e 9b 8d e1 3f 92 9e ed b5 28 88 ae bf
       0.548536000465518 -0.05963256092837556
000740 ce fc f2 9c 94 b6 ad 3f b2 71 00 36 ed c9 c2 bf
       0.058033603819689014 -0.1467873109512659
000750 54 be 34 1b 1f b7 ce 3f 15 e8 9a a3 dc ac c3 3f
       0.23996342495364564 0.1537128256657644
000760 a2 b3 8e d2 88 bc d4 3f 20 fa 87 35 fc ac 94 bf
       0.3240072303986442 -0.02019113613823198
000770 f7 b5 1d 1e 7c 84 d2 3f 38 27 d7 0c b8 09 c4 3f
       0.2893362325765731 0.15654659869169918
000780 02 a4 f6 7f 1c 76 da 3f 6c 62 0a ed 7f d8 4c 3f
       0.4134589433329553 0.0008803009642007315
000790 5d 80 ff 94 5f 47 c0 bf 22 cb 67 51 72 7d c8 3f
       -0.12717814231200722 0.19132832503199731
0007a0 5c 00 e9 34 a7 d2 cc 3f 16 c4 d2 f4 a3 25 b5 3f
       0.225178623995819 0.08260559775477846
0007b0 d5 42 2a a4 e6 a0 b0 3f 19 6f c8 fe dd 1e cc bf
       0.06495515354096011 -0.21969199123929498
0007c0 fb 43 28 5e 38 e0 c7 3f 2c 9d 4a 2b 79 21 c4 3f
       0.18653015706561846 0.157271524561318
0007d0 99 80 83 06 cb 74 bb 3f 3e 0c 96 d9 e8 fe a7 3f
       0.10725087079072394 0.04686668068009013
0007e0 2f 2e 0c 4b d2 0a dd 3f 28 df 4d 30 aa 35 cc 3f
       0.4537854893576165 0.22038771971323823
0007f0 c3 de 98 66 a6 22 d2 3f 09 01 74 42 a6 55 cb 3f
       0.2833648683476719 0.21355131382734552
