data and plots/W_0.npy (npy, 10368 bytes, 1 tensors)

array f8 [5, 256]
00000000: 7b74 49b7 446b 52bf 9037 7d17 7b7e 73bf
00000010: 735b d99c 3286 9f3f e2de 1d5f 1779 a23f
00000020: 8612 166d c24b a6bf 0af3 a06d 87e3 a13f
00000030: d7cd a126 31e6 a13f e06c 7236 7e1f 1fbf
00000040: edf2 46d8 425a 9f3f ad9a 00ed e191 a0bf
00000050: c795 800c f92d b0bf 3a66 7fb9 ae8b 923f
00000060: 60b6 bb22 f16a 953f 11f7 1cbb c1cd 83bf
00000070: ade9 ab31 fe85 83bf d777 b4b5 df19 6e3f
00000080: 08c6 6bdf 70c4 443f 52e3 36ac 9770 56bf
00000090: 3ba6 4520 73e8 aebf c0eb a213 2130 143f
000000a0: 77b3 666a 24e7 a2bf abc9 6356 26ee 903f
000000b0: e8b0 5398 6c0d 223f d5e0 8511 5ae8 7cbf
000000c0: e646 11b2 2bde a33f 8e7d 6167 725a 59bf
000000d0: 7d87 a4ef f72b 8ebf 33c2 5063 5417 74bf
000000e0: b9e1 be40 d91c 9d3f 360b 842d fc43 36bf
000000f0: cf67 b9fc 343d a43f 1e01 52be 93a4 82bf
00000100: f0b4 b4fc bad9 84bf 43c1 befe d3c4 893f
00000110: 0039 fed2 12b4 84bf 988c 5f81 548e 65bf
00000120: 2af6 fcea 3176 4abf 1a33 07d2 0e9c abbf
00000130: 600f 1b41 81b9 62bf 56fe 0678 71de 9e3f
00000140: 525a 0596 ff44 5ebf 5a97 8a21 a088 a23f
00000150: def2 cc81 e062 5cbf 20e5 1b26 c289 aebf
00000160: 16f0 a4ae d52b 723f 867b b480 a48f abbf
00000170: aba2 299b bce0 a03f 60e5 cc22 ad47 643f
00000180: 64c3 6fc5 9e20 82bf 0ed8 7e31 b01a 8ebf
00000190: 61a6 10a5 760f 76bf 50d6 1726 e1fb 87bf
000001a0: 2b57 3695 cb46 a13f 4fb9 b83c d175 983f
000001b0: 7f7f 4e74 dadb 76bf e668 f0ab 97c2 a03f
000001c0: 7dbd 8228 b692 8dbf d785 f85f c2ad 7dbf
000001d0: 2094 b90e fd45 59bf 8708 c6a1 439b a23f
000001e0: 094d 37af ce26 b1bf 286a 0b5f c360 33bf
000001f0: 78b3 6c80 26a4 acbf 386e ac69 2de3 153f
00000200: f101 4230 f221 a03f 2fd5 26fc 5b91 9d3f
00000210: 3eb9 a1df ae4f a13f 3b83 d8d1 8dd3 a03f
00000220: 3744 e8ac be88 81bf 39e0 d0a4 3880 9d3f
00000230: 33f5 af5a fbff 54bf aeac 277e b419 893f
00000240: ed45 fdcf 6618 a23f 71c7 76bc 9ba0 7fbf
00000250: 202f 9add bd90 17bf f37a 80b6 3661 a03f
00000260: 3804 dbdd 4e49 5ebf 9c49 a026 4ccf 203f
00000270: 9576 015b 023f 9c3f 1e1e 33a8 9f8d 62bf
00000280: 6e4c faf0 9a57 643f 241c 0ff2 8ff4 65bf
00000290: d5b5 e11d 3aa5 84bf 8286 c155 a202 563f
000002a0: b3b9 5287 6ea7 9b3f 30dd 37fa da39 9d3f
000002b0: 669c 5a35 34bc 58bf fa87 8a02 d54c 88bf
000002c0: a6b8 d752 2b8d 84bf 55a9 edee a014 533f
000002d0: 8148 6b5a a60b a43f e47a 0c42 bc70 5cbf
000002e0: 0096 448a 86a1 313f e495 e3f2 d882 73bf
000002f0: d2e5 b598 ae96 55bf 00b0 fad6 35bc bbbe
00000300: 8b7a db19 633b 95bf 3c74 c12c fa54 6cbf
00000310: 2619 dffd e94e 643f 64ad d459 9207 223f
00000320: 2eec 6884 d7c2 503f 9471 eb16 0f5d 9d3f
00000330: 6822 1a35 4243 79bf c51f e4df 9070 afbf
00000340: 8a94 450a 983c 84bf 96ba 4201 f12c 53bf
00000350: 3caf c003 99d9 a03f 87cd ce20 2fe5 81bf
00000360: 8e50 b5ed 7da2 30bf 97ff cf28 ce74 b2bf
00000370: 1c36 801b 182b a13f 0e08 f7b7 b8a6 54bf
00000380: a84c f874 2b3d 87bf 7f19 c60d 3b44 52bf
00000390: d2c0 1c33 fffd 7e3f 66c4 357f 884d 87bf
000003a0: cf72 7557 3370 9c3f fcdc c165 09a3 403f
000003b0: d230 c428 c5c1 55bf 0aff f926 20b9 673f
000003c0: ca28 aa0f ce4d 87bf ec6d 97ab 063d 393f
000003d0: 48fb f348 48a9 893f e30b a105 1b81 99bf
000003e0: fbd2 5b47 9702 61bf 70e4 3249 458a 9b3f
000003f0: 4dc0 2b35 d565 a8bf 6c2b 2623 dc86 a03f
00000400: 2f00 8caa c559 a03f 08ce 789c 4176 56bf
00000410: fe62 bace e85e 5bbf 10c6 7ad3 92da 5ebf
00000420: 08ee b4e9 cac5 30bf 3a83 89e2 68ad a33f
00000430: b12a 472b 5550 9e3f e413 4bc7 b6f7 4c3f
00000440: ba09 d711 b8c2 a6bf d83c cc0d fe2a 4c3f
00000450: 8489 6205 0406 9f3f 84fc 95ef 005e 393f
00000460: b07e 63cf 7cad a23f b8e9 f382 cf65 493f
00000470: d0d6 6c07 aa00 aebf fe93 9f09 152b a13f
00000480: 2f03 8844 9cc6 84bf ad9b dd12 2434 84bf
00000490: 51e8 d690 6bb0 a03f 36ce 2c07 df6e 9e3f
000004a0: 8412 3909 dffe 9e3f 7e73 10be 23be 80bf
000004b0: 8666 a64a d1c0 83bf 5d43 87bc 31a1 a7bf
000004c0: 4197 6af1 310c afbf 33a2 afae fea8 a13f
000004d0: ecd8 292c f17d 85bf bf4c 243f 2ed1 55bf
000004e0: 5452 fe56 ce69 9ebf 486a 7694 4415 5dbf
000004f0: e81e 46ed 82c9 5a3f 62dc ecab e314 a0bf
00000500: d1e8 d38c f680 683f 3e16 8a91 23f1 a1bf
00000510: 8de7 0df1 3ded 96bf 56ee fa28 2df3 9e3f
00000520: 40d6 15dd cf4e 583f 23a0 cb48 ebee 553f
00000530: c56f acde e9c6 97bf 874c 1f0e 1440 83bf
00000540: 7411 d62e 300f 63bf 1c83 f9bd c545 a13f
00000550: a4ad 8e20 e6e9 2e3f 1e03 31cd dbcc a03f
00000560: f637 fc0f 2992 85bf 0251 192a eefc 9c3f
00000570: 38fe 295d c44d 923f c87e d77d 7d9a 773f
00000580: 363c e601 617e a33f 8e19 ee1e b197 42bf
00000590: f0e5 78ba f9c3 5cbf c93a 8c3d 27a9 a33f
000005a0: b4eb c6d4 b53b 933f 8776 586c 701e 9c3f
000005b0: 1626 e57b 884a 8b3f 2c35 b877 1db3 81bf
000005c0: cc3d 7278 d975 5dbf c497 fc8f 9b91 983f
000005d0: c49b d465 541f 48bf 87e3 557f 485f 9e3f
000005e0: 8d58 d3f9 24d3 a8bf dbe8 d361 bca5 a33f
000005f0: 0f3e a377 1577 9b3f d411 24af 52bf a23f
00000600: 2cb6 4a08 86f1 83bf 885a b356 5091 9a3f
00000610: e2ac 839a 9dae 7e3f 1026 2396 6d78 75bf
00000620: b783 9b39 1ef5 5e3f 38e8 7dda 4bf1 50bf
00000630: 8040 c703 f123 773f 4a05 dd76 1134 51bf
00000640: 8eb4 ac3a a3be 9ebf 5cd6 acdf 6fd2 adbf
00000650: 9707 a9b0 e332 a03f 8194 3689 3afb 553f
00000660: 2224 7d17 7330 b2bf 1646 ed07 796c 883f
00000670: 3c54 8532 b229 a23f 2e25 1ddb da9a 35bf
00000680: 13bc 6d3d 0ddd 9b3f ba92 7d7c e53d 86bf
00000690: ac42 9c32 528a 9c3f a305 48e2 4d29 aebf
000006a0: f9a8 739d da2d 9b3f 1501 bfe6 9682 b0bf
000006b0: dae3 4c87 06e3 9e3f eed1 174e f3c0 89bf
000006c0: e073 f3e1 8937 1ebf e8df 0bf4 05d8 80bf
000006d0: f81e 1d75 55ca 2f3f eaa3 12e3 2cbd 53bf
000006e0: 5f9e bd27 2559 a43f a99c 90b9 14a5 a03f
000006f0: f64c b13c 4c02 9b3f 5709 18c2 d319 9fbf
00000700: 460e e71c 4ac0 9d3f a2d7 9a1f cdc6 50bf
00000710: 954e bcb4 d99d a03f 4068 986e c96f 63bf
00000720: 165c 40da 5c96 71bf 24e1 abaa 4c75 86bf
00000730: c02d f564 15c0 b0bf 3256 9ef7 2889 a03f
00000740: 28cd 038f e55c 4b3f 205e 4d65 4436 9c3f
00000750: ecaa b9d3 743a 33bf c10d 1d4b 7793 5a3f
00000760: ff4b 0780 939b 80bf c4b2 4cf0 4919 963f
00000770: 1114 ee7b 36d3 a6bf 8ab0 562b 29af 9c3f
00000780: 1b92 ec19 115e a03f 9e26 7641 751f 63bf
00000790: da14 15fb f476 593f 09c9 868b fff1 9b3f
000007a0: 435d 3f40 3fd3 86bf 18bc edd4 c2f8 89bf
000007b0: b851 6d41 0cee 80bf d72c bb03 2fa5 9e3f
000007c0: 6eb6 a962 56ed a1bf 4b41 467e f064 76bf
000007d0: 740f 8578 30a7 87bf bdb2 9b2b 4a22 5cbf
000007e0: 3a26 89d0 d3e9 64bf 65f3 b69e 19c4 9b3f
000007f0: 5759 6d0a 2665 4d3f a6c8 ddb4 5e69 a03f
-0.001124207597192921 -0.004759293391385713 0.030785361121469856 0.03608010326473533 -0.04354674893969439 0.03493903363457747 0.034959350553346695 -0.00011872489777646792
0.03061775631953172 -0.032362995320274514 -0.06320148997527673 0.018110971519354126 0.020915763611745297 -0.009669793627491015 -0.009532915011267596 0.0036744469959008974
0.0006337691437165458 -0.0013696175745805017 -0.060367200555287735 7.701112636741749e-05 -0.036919725407051844 0.016533469221892066 0.00013772917387855983 -0.007057525472525768
0.0388044028155841 -0.0015474431252398865 -0.014732300759138667 -0.0049050613788926166 0.028430361344108344 -0.0003397455852935273 0.03952947220814417 -0.009102968450179601
-0.010180912816020599 0.012582451068596462 -0.01010908800506316 -0.002631344842471583 -0.0008075469722609908 -0.05392500222988002 -0.002285721254198167 0.030145428610693102
-0.0018475051839083223 0.03619861993256164 -0.0017325584842204293 -0.05964476313779188 0.004436335273847921 -0.05383028098207547 0.03296460527491737 0.002475584179049292
-0.008851280594144924 -0.014699341307146365 -0.005385840851013763 -0.011710890746125774 0.03374324985922635 0.023886937457228637 -0.005580762231062296 0.032734622706088776
-0.014439986335075922 -0.007245787884615016 -0.0015425654663883195 0.03634082174086566 -0.06699840333685726 -0.00029568452650399974 -0.05593986814196844 8.349384954125453e-05
0.031508987799501294 0.02887481428634436 0.033811058806224356 0.03286402880281122 -0.008561601306640394 0.02880943780857612 -0.0012817339545557304 0.012256059741920868
0.035342419518780456 -0.007721527428133133 -8.989485595572696e-05 0.03199168184095482 -0.0018485326940409618 0.00012824825836383897 0.0275841110272866 -0.0022647970486990984
0.0024831796834603936 -0.002680092948569095 -0.010080770527760055 0.001343401460893651 0.027005888947934497 0.02854101326189812 -0.0015097150657455093 -0.011865295543717725
-0.010034883943230998 0.0011645862211602982 0.03915138105152583 -0.001735862584787356 0.00026902708693152255 -0.004763457733337504 -0.0013176636738009184 -1.6531465369213835e-06
-0.020734356358725264 -0.0034584890582168 0.002479035391817724 0.00013755475530650562 0.0010230164204034875 0.028675304197223264 -0.006167658446095993 -0.061405684786279426
-0.009881198705168143 -0.001170382839557204 0.0329101388054753 -0.008737915219035454 -0.00025382589747847343 -0.07209480759047292 0.03353190742209852 -0.0012604526417452386
-0.011347140795839941 -0.0011149002740196976 0.007566449044858996 -0.011378351575986833 0.027771761143742076 0.0005077167402437739 -0.0013279366858709907 0.0028958919500040635
-0.011378869870231862 0.00038510716293924 0.012529911733961577 -0.024906561106273883 -0.00207643076543673 0.02689464816350945 -0.04765192293223262 0.03227889947000659
0.03193490702506129 -0.0013709679350427679 -0.001670577384095206 -0.0018831666801982817 -0.00025592998436582736 0.038432386067830795 0.029603319899062345 0.0008840219948856834
-0.044454338243230265 0.0008596172807261672 0.03029638560168159 0.00038707278107347914 0.03647985488509897 0.0007750762214578299 -0.05859881725920746 0.033531815933919504
-0.01014444431439329 -0.009865075898870613 0.032595979147530436 0.029719815075806198 0.03026913160126067 -0.008175162542153332 -0.009645114031445755 -0.046151689780919304
-0.06063991615273646 0.03449245340727138 -0.010494121704351454 -0.0013316108348291748 -0.029700492915781432 -0.0017750901914498508 0.0016349581320315668 -0.03140937303253889
0.0029911818916136053 -0.03504286910633113 -0.022389381253993746 0.03022451937316214 0.0014836339872465049 0.0013387010287093735 -0.023219732490460183 -0.009399563485123842
-0.0023265782426184437 0.03373544639612744 0.00023585256738321598 0.03281294708040704 -0.01053268508942649 0.028308602637779685 0.017874782739907696 0.00576256771225276
0.038073569757323275 -0.0005673994872815045 -0.0017557085756280087 0.038399912131458054 0.01878246413410141 0.027459866154563996 0.013325754433611652 -0.008642416206408564
-0.001798117040184499 0.023992949164629143 -0.0007361566637528118 0.029660351535742115 -0.04848590421322383 0.03837383932291668 0.026821456362823123 0.036615928534988434
-0.00973801338963217 0.025944953243050267 0.007490745200111367 -0.005241802284396538 0.0018894953886319074 -0.0010340920216252002 0.005649510826018056 -0.0010500116872694414
-0.030024099785056317 -0.058246131948561625 0.03163825541970693 0.0013416358604925462 -0.07105178187806918 0.011925645403297696 0.03547436587056338 -0.00032966464197111106
0.027210432886416735 -0.010860245572709249 0.0278714030637867 -0.05890887629721966 0.026542106494994198 -0.06449263699960668 0.030162908561781034 -0.012575054951391853
-0.00011526850765926312 -0.008224531660275106 0.00024254124815058903 -0.001204770884479562 0.03974262342563572 0.032509467746700445 0.026375952915555133 -0.030371960374404008
0.029053838743278847 -0.0010239604147676902 0.0324543030857544 -0.0023726400584225538 -0.004293787675144342 -0.010965918501356038 -0.06543096270359339 0.032296447970264444
0.0008350487605909606 0.027550762827870057 -0.00029340126250214263 0.0016220726942755977 -0.00810923799955354 0.02158084420368557 -0.044580175998852785 0.028011935491733676
0.03196767274338105 -0.002334336295182051 0.0015542404547244566 0.02729033745863155 -0.01114510931794988 -0.012681505320612671 -0.008266540285753674 0.02992700062058592
-0.03501386598950949 -0.005467357088847112 -0.011549357107135207 -0.0017171596832056678 -0.002552903843285018 0.027115249931500957 0.0008970676179654119 0.03205390889969921
