data and plots/W_0.npy (npy, 10368 bytes, 1 tensors)

array f8 [5, 256]
000000 e6 d6 fc 40 db 70 a9 3f 4f c1 90 3c 6e b8 c2 3f
       0.04968915146166157 0.14625337559983584
000010 d3 56 9a 01 01 54 d8 bf d2 e0 03 7b 04 59 b6 3f
       -0.38012719303638426 0.08729579928683798
000020 7c 04 ee 46 18 b9 e4 3f 6b db f8 36 bf c4 c7 bf
       0.6475945840212627 -0.18569173988518214
000030 80 10 c9 19 8c f4 5a bf 45 9a 1e ee 03 a1 be 3f
       -0.0016452186747679953 0.11964439929452293
000040 74 27 4e 46 93 8f b9 bf 8a 73 28 86 4d b3 b8 bf
       -0.09984703508794529 -0.09648594403593172
000050 f3 ea 92 7b 84 27 d1 3f 26 ad 62 27 c1 5f c2 bf
       0.2680369574333518 -0.14354719565503976
000060 e9 60 58 93 b8 bf de bf b5 d4 1a c3 49 70 70 3f
       -0.48045172108824247 0.004013336308777917
000070 4c cf 50 b3 f8 d0 ae 3f a1 4e 8e 63 c2 98 d2 3f
       0.06018807591354278 0.29057368967299096
000080 fd 25 f6 ed c3 04 7a 3f ed 00 eb 8e 3b 0b e5 3f
       0.00635220084166965 0.6576211730353215
000090 6b 75 77 11 88 20 bf 3f ab 78 f3 d1 e2 e6 df 3f
       0.12159014154845742 0.4984671640685387
0000a0 64 77 89 78 21 b2 ad 3f 51 bc 78 bb e2 03 d5 bf
       0.05799965473555238 -0.328362162664182
0000b0 53 fb 30 8c 8f 77 e1 3f 4b bb 98 4f bf aa a7 3f
       0.545844816027833 0.04622457358015327
0000c0 7d 24 2d 8e 65 8b 75 3f 2b a0 90 7d 18 8c e5 3f
       0.005259892178238632 0.6733515217247307
0000d0 11 3f 48 ae f9 9c c4 3f ca 6e e9 84 93 2b b1 bf
       0.1610405064570775 -0.06707117075842031
0000e0 10 9d f9 d2 92 ef 93 3f 7a a5 48 e6 38 97 a4 3f
       0.019468587996383013 0.040216234312832236
0000f0 f3 d8 bc be 10 c6 b4 bf 3f b9 8f fd 05 72 ab 3f
       -0.08114723831826946 0.053604304506608795
000100 e2 2e ed e1 3e 4a d9 bf 1b 83 e8 fe 6a 83 e2 3f
       -0.3951565939248508 0.5785422304798858
000110 3e e2 4a c8 3f 2f 81 3f 2b 9e 64 ff 15 99 d3 3f
       0.008390901851599183 0.30621862354971324
000120 54 01 6e a3 f1 bf 8f 3f 5e 9a 6b 54 66 28 e8 3f
       0.015502822685221553 0.7549316071352441
000130 11 a5 58 52 87 5d a7 bf 18 4e 59 34 d8 36 c7 bf
       -0.04563544159129596 -0.18136122280212486
000140 35 36 f9 b1 51 1b e9 bf a3 94 38 6f a1 78 e0 3f
       -0.78458485374876 0.5147254154477604
000150 f7 48 85 d4 ca 9a 76 3f ee 2e 26 50 b2 87 d7 3f
       0.005518715195949256 0.36765725924554615
000160 e9 c1 18 42 90 7c c4 bf ef a3 1e 1b 02 16 d1 bf
       -0.16005137660387384 -0.2669682755318367
000170 11 db 96 01 21 07 ca bf 64 db d0 a6 ff ff c4 bf
       -0.20334255769349643 -0.1640624584703928
000180 00 8e 03 32 51 fa ba bf 94 de a1 32 4e 19 93 bf
       -0.10538203688661696 -0.01865122016940164
000190 30 89 56 8d 0a 4a c2 3f 0c 5d 8b eb 70 cf e5 3f
       0.14288455868979488 0.6815723991848315
0001a0 68 fe 02 81 bf c0 e6 bf 97 06 6b b9 e2 ba c3 3f
       -0.7110288162002236 0.15414079717270532
0001b0 5e fe 40 09 68 8f ac 3f 6e 92 b9 35 db 34 e3 3f
       0.055781603936790644 0.6002021836580533
0001c0 9d 70 a2 be 2f a3 cc 3f fe 76 79 c2 93 86 b0 bf
       0.22373005684210492 -0.06455348489677346
0001d0 e5 6a af a9 bf 51 cd bf 41 c7 d7 95 ef b0 eb 3f
       -0.22905727181826943 0.8653486181849318
0001e0 0e 63 5c 6a 2b 4c f3 bf 06 93 d1 74 28 f3 d2 3f
       -1.206096091720784 0.2960911885077596
0001f0 e9 71 8a e7 62 7b d7 3f b7 57 e0 d6 42 3e b1 bf
       0.3669059048786765 -0.06735627885822636
000200 84 7e 54 20 95 b6 d2 3f 56 8b 39 92 1f f5 e1 3f
       0.29239395291549664 0.5611722808792858
000210 65 e4 a0 f5 6a 40 c0 3f 40 48 7e cf 6c d0 d6 3f
       0.12696587556436892 0.356471254949728
000220 95 b3 45 64 17 b9 cc bf 4e d0 1a 4c c5 3f b5 3f
       -0.22439854045969967 0.08300431354547408
000230 53 43 5b 50 39 46 e1 3f c7 2b f4 64 2c 00 b5 3f
       0.5398222512686551 0.08203389610950672
000240 65 8e 44 5a 7f 4f ca bf 2f 3d 66 ba 9d 6d b7 3f
       -0.20555107028586686 0.09151635933652778
000250 9d 07 a7 04 82 96 9d bf 5e 70 9b 8c 8f ff bc bf
       -0.02889445451160776 -0.11327454741280138
000260 f7 6f 52 66 d1 04 ec 3f 29 c5 16 bc b0 04 aa 3f
       0.8755881308056804 0.050817034683300406
000270 cd 7f 9d c6 0a cb ca bf 1a e3 51 59 f2 b3 e3 3f
       -0.2093213529396948 0.6157161469010106
000280 70 95 24 f0 63 43 ce 3f e6 72 df 55 99 ea d2 bf
       0.23643159127929492 -0.29556878458042346
000290 9f 44 f5 8d 9c ea d5 bf f6 67 7f 8e 3e c7 cf bf
       -0.34244455206960284 -0.2482679553784803
0002a0 ed 3a 11 ce c5 9e da 3f de 4d c0 61 38 8d e6 3f
       0.4159407150627164 0.7047387990191358
0002b0 67 22 5d 0b 9a 05 7a 3f 09 58 55 7d fa bd c5 bf
       0.006352998481653139 -0.16986018295091324
0002c0 6f 8f 58 03 10 2d c3 bf 48 37 7c a0 97 fc c1 3f
       -0.1498126999223319 0.14052100502197562
0002d0 bb 96 1a fd ac 2f ac 3f 7c f8 cb 97 f0 85 5d 3f
       0.05505123700758704 0.0018019532719218126
0002e0 83 d0 b6 52 62 01 b3 3f 52 32 08 15 02 57 b7 bf
       0.07423986930263209 -0.0911713887546253
0002f0 3b f8 c5 ec d0 ca c5 bf 75 ff 82 1f b4 f5 fa bf
       -0.17025195656964506 -1.6849862318922224
000300 3f 8a 94 a6 d6 43 d5 3f 56 ee 0f b0 c2 46 75 3f
       0.3322655321846106 0.005194435595508992
000310 11 2b 17 aa 43 8f de 3f 5f a7 28 a2 cb e2 f0 bf
       0.477494159797673 -1.0553699812248494
000320 0e dd 1c c6 c9 46 df 3f 20 84 ad 9e 3b 67 2c 3f
       0.48869556757877397 0.00021669962674322838
000330 92 43 0c 62 25 63 d9 bf 3c 5a 9e 95 90 a8 de 3f
       -0.39667639327040505 0.4790383778685372
000340 13 84 54 99 cd 5a a2 3f 99 ae 4c 45 e5 a4 b5 bf
       0.035849022833879605 -0.08454735700495987
000350 71 04 e1 d4 f6 8c c1 bf 4a ac 78 8a 80 7f c4 bf
       -0.13711438555222658 -0.16014105569169806
000360 66 2d 66 54 30 af c1 3f 39 bd 0f 7b 94 4c d2 3f
       0.13815883751918107 0.2859240724346424
000370 99 ff 4d 1b b3 5e 79 bf 4e a2 1a 68 3b a9 d4 bf
       -0.006193828235041021 -0.3228291050568587
000380 0e 02 df eb 4e 2f dd 3f 7b 2e 7e d0 0b c6 c6 bf
       0.45601246866502343 -0.17791888885800575
000390 51 38 0d ed 50 da 9b 3f d1 18 6c 61 66 33 e2 3f
       0.02719999739502327 0.5687744047907249
0003a0 07 8b 2f e1 dc 14 e5 3f 0d 54 00 85 1a 6b c0 3f
       0.6587967298658847 0.12826854223445175
0003b0 78 20 59 89 92 2a ad 3f 10 ff 62 f2 2e 21 b6 bf
       0.056965426698810384 -0.08644383828777458
0003c0 57 e4 e3 24 24 3d b4 3f be a8 ba 57 b7 a3 e1 bf
       0.07905794048919411 -0.5512348855457032
0003d0 22 25 17 27 1f 2a 94 bf 04 5f 0c c5 32 bf 91 3f
       -0.01969193149651461 0.017330926205516142
0003e0 86 3e 4c bc 16 d9 7a 3f ff 41 c9 d5 ae 54 8d 3f
       0.006554688273140768 0.014321676158176365
0003f0 a9 5c c0 7c 03 3f d8 3f cd 0e 7d c7 d6 9f 8f 3f
       0.37884604628329527 0.015441587412744618
000400 96 c4 3b 4e b3 d4 c7 bf de 51 c4 78 65 39 a4 3f
       -0.1861786014556272 0.03950039958195693
000410 59 42 a0 6b 82 c2 c8 3f b1 bd cb b2 24 46 af 3f
       0.19343595748115908 0.061082026315371414
000420 4e e9 19 03 c4 25 e2 3f 90 b6 ed bd b1 f8 b7 3f
       0.5671100674219731 0.09363852393081573
000430 1e 99 64 13 b2 4c 8f 3f fa d8 de 98 fe 03 b4 3f
       0.015283004013849463 0.07818595153989696
000440 6b 18 f3 ff 09 fa b3 3f 62 19 0d 62 cf 27 c2 3f
       0.07803404330033607 0.14183990752844539
000450 91 26 80 a2 c2 fd bb bf 69 ce 8e 2f bf 36 c6 3f
       -0.10934082476901553 0.17354574033889783
000460 22 dc e4 e4 59 b4 ac 3f 22 05 a8 a1 e7 37 e6 3f
       0.05606347006908431 0.6943243176794207
000470 0d 3c f7 b7 8c 42 a4 bf 27 d6 f9 76 a5 6f e3 bf
       -0.03957023378062994 -0.6073787044285311
000480 08 d0 51 73 22 04 b4 3f 71 6b 38 0b 26 ad 66 bf
       0.07818808856410453 -0.0027681105655238893
000490 36 f1 81 fe 02 91 72 bf 1b 63 2b f3 d5 be d2 3f
       -0.004532825180032332 0.2928976893140757
0004a0 55 6f ae 69 74 70 fb bf d8 20 f7 22 cc 3b 98 bf
       -1.7149547699145462 -0.02366560901080636
0004b0 f8 48 fc 1c f9 32 a3 3f ab 93 e3 32 c7 d1 c8 bf
       0.037498268879192 -0.1939019201737698
0004c0 06 78 d4 7f 84 5f ca bf ab db a1 20 4a f5 d7 bf
       -0.20603996507355776 -0.37434628664726216
0004d0 17 db 8d 1a 33 c7 c5 bf 57 ee 0c 24 e1 66 a4 3f
       -0.1701415900858698 0.03984740796155666
0004e0 b7 a7 7d 5f 7e e4 ca bf b7 c9 57 b1 0a ff b8 3f
       -0.21009807264937105 0.09764162854825185
0004f0 86 44 23 28 46 f0 cf bf 50 ac d1 37 dc 69 d3 3f
       -0.24952008209087156 0.3033361954791802
000500 42 96 9b dd a5 a5 e2 bf 9a 5a 4d b9 8b 13 b2 3f
       -0.5827206924702255 0.07061074518183333
000510 a7 6c a9 95 6e 98 e4 3f 96 a0 ed e3 36 ec c0 3f
       0.6436074183542545 0.13220869187648948
000520 1a 14 fe e7 34 31 b8 3f bd a5 b3 0e 12 87 db bf
       0.09450083412055257 -0.43011905132024336
000530 c4 7e 2d a1 95 5a 73 3f bf ba 24 7c 90 56 d8 bf
       0.0047250599771754866 -0.38028347133051094
000540 78 b8 14 c2 09 16 e5 3f 1a a3 c2 70 42 bf f1 bf
       0.6589401999133448 -1.109194221944739
000550 91 e0 69 d6 de d9 d8 3f 6f 5c 9a 18 1b 26 f3 bf
       0.38829775751902057 -1.1968031846097593
000560 34 c8 0b 3c 97 90 d4 3f 8b e1 9a 8f df ca c2 bf
       0.32132511962766164 -0.14681620132411086
000570 e0 34 45 aa 59 e1 d2 bf b2 eb 44 34 54 95 ca 3f
       -0.29500428798639966 0.2076821570607002
000580 af 42 da 8e 36 d3 c6 bf 5e 64 76 31 19 e2 c3 3f
       -0.17832071280692705 0.15533747592124575
000590 04 dd 68 a4 e1 ea e1 3f 6a a0 5e 85 02 e7 d6 3f
       0.5599220477223814 0.35784972214106026
0005a0 0d 96 9e fe d6 cf c8 3f 69 cd 50 2c cc 29 d3 bf
       0.19384276802627234 -0.29942612006853736
0005b0 fa 79 1d 9d 42 9c e1 3f c1 9b 78 97 4a 02 c3 bf
       0.5503247326521994 -0.14850742717791657
0005c0 c5 0d 21 58 ab 1b e2 3f 14 11 82 0f 2e c7 66 bf
       0.5658776017448238 -0.002780523263995369
0005d0 41 dd 5f 2f 0f a9 e4 3f 18 76 26 a2 26 dd e3 3f
       0.6456371236116994 0.6207459609028687
0005e0 b0 d9 45 9c 0c 50 ac bf 2e ec dd 25 1a 7a 74 3f
       -0.055298227382923115 0.004999258175185024
0005f0 bd 7b 9a 29 76 19 b9 3f 21 16 b9 6c 4e c8 e0 3f
       0.09804476276120418 0.5244514583106971
000600 91 b3 32 bb 79 a6 d8 3f 55 0a 5e 93 b2 27 bc 3f
       0.3851608589273435 0.10998073671184135
000610 cc a7 3a d2 88 88 da bf b2 30 d9 30 d1 78 8f bf
       -0.4145834019678858 -0.015367159178957788
000620 aa a4 ae f9 3c 92 d4 3f 15 83 c9 7f 48 17 b5 3f
       0.3214256704619155 0.0823865234356272
000630 53 d7 08 46 c0 0e ad bf 1e 2a 18 37 09 6a a8 3f
       -0.05675316672242894 0.04768399045504544
000640 c3 46 bc 05 d5 b0 ba 3f 1d b5 53 c9 85 14 e8 bf
       0.10426074399972678 -0.752505200592768
000650 24 04 2e 0c fb c2 e0 3f 48 53 c4 d2 a7 fd c8 3f
       0.5238013494382625 0.195240953362964
000660 ae 5c df e2 97 1b e2 3f 5c 9c ad da 0a 60 a6 bf
       0.5658683234313651 -0.04370149535571308
000670 80 da 82 6b 81 64 d7 3f 7c 21 b7 db 98 57 e1 bf
       0.3655093717492619 -0.5419430056872865
000680 d5 f7 b7 5b 65 2b c5 3f 41 57 64 e5 a8 05 c5 3f
       0.1653868387074328 0.16423522187022324
000690 c3 84 c5 c7 8d f2 77 3f 30 88 10 ac a4 f7 81 bf
       0.005846551732561159 -0.00877312326526089
0006a0 fb d3 da f3 ab 0d d8 3f 87 05 63 ec 37 25 c0 3f
       0.3758344537157538 0.12613581697773332
0006b0 73 0d 90 f6 40 04 c3 3f 5f 3f 15 61 e0 17 be bf
       0.14856731452173796 -0.11755182619276415
0006c0 1a 73 d1 a2 89 e6 c9 bf 39 26 a3 b8 1c 66 56 bf
       -0.20234795045953363 -0.0013671188813070402
0006d0 66 25 04 3b 9a 3f 35 bf 6d b4 c3 86 48 30 67 3f
       -0.00032422557252738957 0.0028306404620850796
0006e0 30 59 de fb 0d 24 ae 3f 45 3c 0f c6 6e 6c ce bf
       0.05886882495467416 -0.23768410368799855
0006f0 86 34 80 b4 bc 19 85 3f 34 1f 65 69 8c ca d6 3f
       0.010302995928237257 0.35611257832032384
000700 1e 2a 3c 48 7e 7e a3 3f 97 17 0a 12 ff 1e dd bf
       0.03807444221282118 -0.45501686822569226
000710 8b 6f 7b 7d ef 68 aa 3f c1 81 35 aa ff 8f a9 3f
       0.05158184439434795 0.04992674782511442
000720 ad b9 83 08 83 e3 da bf d8 a9 f1 57 aa ed 74 3f
       -0.42013622123240674 0.0051094678920926215
000730 9d 9a 7e 26 8e 64 b6 bf 39 40 04 85 e6 46 c0 3f
       -0.0874718517285182 0.12716371054603018
000740 8b 6a 4f 6a 9b 0b c5 bf ea 28 ce 23 f5 50 c0 bf
       -0.16441672030380902 -0.12747062919908753
000750 23 c8 b8 c9 a2 43 c1 bf 4a 64 d1 0c 9d c9 be 3f
       -0.13487658357331708 0.12026387751520065
000760 3c f9 77 6f e9 9e b5 bf e2 17 ce 4b 8b 07 07 40
       -0.08445605250742444 2.87868365500161
000770 4f b3 3d c6 f4 c6 b9 3f cc cd d1 b2 49 1f bb 3f
       0.10069207992428385 0.1059461652346762
000780 b4 04 52 60 44 05 6e 3f 1f f9 be a1 42 02 79 3f
       0.0036646209214841966 0.006105671196506428
000790 dc 44 d5 98 db c6 cf bf 67 b1 af a7 1f 09 86 bf
       -0.2482561584716113 -0.010759589486007482
0007a0 5a 23 1b c3 3f c0 da bf dd 85 dd b9 f9 3c ee bf
       -0.41798395207711325 -0.9449432974035364
0007b0 ab 31 2c b5 30 b8 ce bf 4e aa c3 f8 0b c0 30 3f
       -0.23999604078597989 0.00025558750418378385
0007c0 f0 c7 24 d5 6c 14 b1 bf f0 b1 32 d2 69 ff c0 3f
       -0.06671791270926497 0.13279459727836196
0007d0 b2 eb c1 e4 ff 37 cb bf d9 b5 78 2c de d4 e0 bf
       -0.21264647168922363 -0.525984846933791
0007e0 a2 87 e5 31 68 4d bf 3f d3 c7 54 1c 93 fd c4 bf
       0.12227488725832683 -0.16398848422391996
0007f0 f8 4f 0d ad a2 24 e3 3f 16 8a 2f 3b e3 c8 e7 3f
       0.5982221012041 0.7432724147768706
