data and plots/W_1.npy (npy, 524416 bytes, 1 tensors)

array f8 [256, 256]
000000 eb a5 a7 88 11 02 b3 bf 40 16 e0 18 31 bd b9 bf
       -0.07425031267452879 -0.1005430875521478
000010 f1 f3 0e 7c e7 8e bc 3f 4f aa 21 e5 dc bb 91 bf
       0.11155554560441751 -0.017318202481343466
000020 e0 a2 a1 ae 57 f6 8e 3f 9c d3 ea 1b 17 93 b5 3f
       0.015118298546626219 0.08427566939901826
000030 66 cc 20 5b be 0b 99 bf 91 8d 4e 42 51 fc 86 3f
       -0.02445886069490335 0.011223444782280352
000040 1c 83 3e 2f 96 88 94 3f a7 e4 8c 10 00 43 65 bf
       0.020052286752277756 -0.002595424772519356
000050 2f c2 55 e5 95 0d 89 bf 67 10 28 39 bc 36 a6 3f
       -0.012232943593262295 0.04338634679518876
000060 2f f9 13 27 52 56 7f 3f 80 0c bd af 42 7c 80 3f
       0.00765068140867546 0.00804950808345084
000070 82 29 1c 93 a7 52 a8 3f b0 98 4e 4d fe 63 99 3f
       0.04750560446526021 0.024795506924100763
000080 0b e6 e6 88 98 2d ae 3f 28 da 13 b4 5d cd 9d 3f
       0.05894161864439348 0.02910372172933698
000090 e2 ae 05 46 ca 05 69 3f 85 03 71 b6 b1 87 84 3f
       0.0030545187620897177 0.010024441127940662
0000a0 e1 75 09 2c 5c 10 78 bf 97 93 13 d8 a7 1a 5e 3f
       -0.005874977156591994 0.0018374098875082229
0000b0 47 b1 c0 0b 3a 4d c0 3f d7 64 b1 f8 41 68 ad bf
       0.1273567731271987 -0.05743604813387442
0000c0 72 98 71 c4 5e 68 b6 bf cb e7 1a 15 75 81 98 bf
       -0.08753006263722954 -0.023931340611603773
0000d0 95 40 ad 6a 3e 1b 83 bf 21 da 3e 77 52 8d b9 3f
       -0.009329307203785478 0.0998126546026943
0000e0 ca e7 e9 82 f7 a0 88 bf d0 6d 50 4c f0 2f af 3f
       -0.012025769884747368 0.06091261798448111
0000f0 a1 dc 3e 12 0f cf a6 3f cb bf b9 b8 1d 1f a4 3f
       0.04454848382686661 0.03929989700270616
000100 fe 2a b3 37 62 14 90 bf 2d 02 27 4b e6 b5 b0 3f
       -0.01570275750126892 0.06527556738638714
000110 b2 d2 32 e1 26 9b a7 3f 25 05 e8 4f 53 46 a2 3f
       0.04610558985715353 0.03569279051226663
000120 83 4e 61 21 94 38 a0 3f ce 45 35 93 df 7e 86 3f
       0.03168166072341896 0.010984179191526968
000130 d4 46 ba 69 d6 81 b4 3f 76 79 f5 97 b2 f5 a0 bf
       0.08010616379967966 -0.033124524163883715
000140 10 b2 f7 c5 17 fb 81 3f e2 c7 88 d3 5f e2 8d bf
       0.008779702881803991 -0.014591931002630735
000150 45 0a de 87 c5 40 79 3f 94 c8 8e 64 1d d9 af 3f
       0.006165286640568872 0.0622033295870931
000160 8e 0d 44 79 e2 76 52 3f d8 80 2a e6 b4 44 b1 3f
       0.0011269771248983737 0.06745463008201413
000170 2c 0f 5f 43 e8 4f c4 3f ce f6 af bd 82 5d 95 bf
       0.15868857659926883 -0.020864527537915838
000180 bf 65 88 1e 8e 6d c1 3f 98 d2 ab 96 f3 ce 8e 3f
       0.13615585795268534 0.015043166194552968
000190 66 3d 28 8d 26 88 ab 3f a6 28 38 ee be 91 8c bf
       0.05377312157736007 -0.013949863095167391
0001a0 ef e9 b9 21 57 a3 6d bf 37 b8 51 0c 83 13 96 bf
       -0.003617925814805682 -0.021558807017236083
0001b0 87 43 33 a2 4a ea b8 3f e8 bf a1 9f 34 69 a5 3f
       0.09732500514952679 0.0418182797301368
0001c0 df 38 cc e6 d0 06 b5 3f 5e 4f 79 ee ec 89 9f 3f
       0.08213525423727529 0.030799581580438377
0001d0 a5 21 06 b3 c4 9f 72 bf b0 43 6b 7e 7a 86 a7 bf
       -0.004546898228348449 -0.04594786446762755
0001e0 69 7f f9 f6 6a eb a4 3f 16 2c 87 ac 28 d8 81 3f
       0.04085859551264443 0.008713071599137517
0001f0 dc 35 23 33 a8 24 96 3f f1 67 81 39 cf 73 8f bf
       0.02162421047323969 -0.015357607786587098
000200 d2 ed 70 f0 d1 05 8a 3f 1e 85 46 0f cf 06 c0 3f
       0.012706413412266668 0.12520778890488143
000210 43 af c5 a8 48 7f b7 bf f9 45 3d 34 bf 0b a9 3f
       -0.09178594704070257 0.04891774666488042
000220 27 0f 0f c6 13 5c b1 3f ff 24 2e 5e d7 95 9e 3f
       0.06781123719616443 0.029868474124246976
000230 a0 88 41 4e 29 2c b6 3f 7e ac 53 60 79 33 84 3f
       0.08661134872957854 0.009863804104005999
000240 4a df cb 39 44 42 b9 3f 02 6f 28 30 bd ed 94 3f
       0.09866739665073712 0.020438152374580028
000250 c1 6d e3 2b 1b e0 b0 3f 84 6d 27 88 3e 09 a9 3f
       0.06591958829397183 0.04889865314518274
000260 68 0b 16 f8 21 08 6a bf 1e b8 91 e4 a8 6b b1 3f
       -0.003177706094619582 0.06804900722792737
000270 ba 66 29 a2 ae 23 af bf 4c 41 ee 1c d8 45 ac bf
       -0.060819108290798465 -0.05522036889226686
000280 02 1d e3 f1 4e da b6 3f 02 eb 69 7a 0a f1 b1 3f
       0.08926862149666095 0.07008424271218064
000290 2c 48 dd 7d b0 e6 a8 3f 09 ac d3 13 ef 06 bd bf
       0.04863502060347033 -0.11338705286077312
0002a0 6d 79 a1 ee f8 32 9e 3f 29 2c fa 2a f6 99 98 3f
       0.02949131924139563 0.02402481686889871
0002b0 75 73 fc c0 59 c8 ad 3f 9d d4 84 bf 17 d4 ab 3f
       0.05816917877948572 0.05435251438977071
0002c0 13 55 9c 35 14 0c a5 bf de 14 d4 be d7 c7 ac bf
       -0.04110778002192652 -0.05621217922638676
0002d0 4e cb 0b 8a 13 9a 9f 3f 81 30 80 d6 84 f2 93 3f
       0.03086119203630782 0.019479823677145184
0002e0 f4 c9 39 62 f7 7b 70 3f 58 76 c4 1f e3 84 a5 bf
       0.004024473516994299 -0.042029473903522685
0002f0 d7 a1 27 48 f9 91 8e 3f be 45 a2 a1 4c 2b b6 3f
       0.014926860346307897 0.08659819551600997
000300 20 b3 f0 2d 7b 39 9a bf f2 10 df 58 51 ac 7a 3f
       -0.025609898261040986 0.0065119912741844355
000310 30 cd 12 63 1e b8 a0 bf 97 d1 ee 01 42 ab 6e 3f
       -0.03265471419708843 0.0037437714776961772
000320 ec 44 a8 a0 28 8e 61 bf 60 a2 a4 dd 49 2e 7e 3f
       -0.0021429818637065303 0.007368362940078116
000330 2d bd 1e aa 77 64 a7 3f dc b3 11 cc 96 66 b3 3f
       0.04568838073407231 0.07578413469464301
000340 37 ed 45 4d 9a 13 93 3f cf 60 07 14 52 5a 7b bf
       0.01862946602476009 -0.006677933328738741
000350 ec ae 49 94 cb e7 ad 3f d2 79 74 98 7a b3 84 3f
       0.05840908227113836 0.010107953813130264
000360 b7 19 44 4f 06 40 b0 3f 78 25 3a 42 0d c9 97 bf
       0.0634769385834265 -0.023227889220412717
000370 c6 66 55 29 71 a9 77 3f e1 5b 69 49 a0 95 b4 bf
       0.005776826893759418 -0.08040811340593691
000380 20 69 6e 9c 84 41 88 3f 98 db 0e 56 0e 23 9e bf
       0.011843715690521395 -0.029430603029790697
000390 a7 82 42 0c 9c 48 a9 3f 10 3e 85 a4 6c 5e 7f bf
       0.04938209199577175 -0.007658409486182474
0003a0 a7 9c 3d e3 45 77 8e 3f 5e c4 ba e2 27 c2 4a 3f
       0.014875932690939854 0.0008166022066317215
0003b0 0b 7e 4a 6d 41 8b aa 3f 34 cb 0a 36 86 4d d8 3f
       0.05184368571394423 0.3797317054515361
0003c0 53 5b d0 7a 00 4f 68 3f fa 15 f6 93 dd 25 b4 3f
       0.0029673585290867304 0.07870278227172625
0003d0 dc 1f 43 a7 26 a7 9c bf 4b 19 ae 6f 2c 0f 91 bf
       -0.027981380423426447 -0.01665944511071275
0003e0 6f 11 1c 7c 7e d6 85 3f 06 35 eb b8 76 d5 82 3f
       0.010663021242643038 0.009196212309144258
0003f0 bf 8f d1 52 ae 09 7e bf 07 26 40 73 df 68 b6 3f
       -0.00733345122452883 0.0875377327321517
000400 8b ae 39 0b 5c 60 84 3f 07 fa 56 13 da 03 b0 3f
       0.009949416248864714 0.06255877468263558
000410 70 2b d5 3d fe 23 9e bf 5e ec 37 f5 24 03 ad bf
       -0.0294341778983766 -0.05666461461438453
000420 2a 5d 36 06 29 68 7f 3f 66 56 ba 5a b2 93 c5 3f
       0.0076676943312102095 0.16856984548637682
000430 98 a8 2e 77 d6 c1 a8 3f a6 08 51 7a 5f da 96 3f
       0.048353864716163375 0.022317401733979246
000440 a8 e6 1b 8d 19 3c 84 3f d7 d3 29 38 f4 ab 8c bf
       0.009880256289295744 -0.013999851192446329
000450 5d 76 96 bd 9a a4 8d 3f e4 af 0f 9c d5 d7 8b 3f
       0.014474114332922722 0.013595265221702797
000460 35 c9 8f ce 13 c3 62 3f a2 67 59 ec d8 e3 7a bf
       0.002290285764041356 -0.006564948421862756
000470 b2 f1 42 99 59 c2 cb 3f c5 d4 cc c1 97 ba b4 3f
       0.21686859115096763 0.08097218018959314
000480 ae ec 18 89 62 7d ab 3f e7 08 e8 a6 91 76 8a 3f
       0.0536909859042337 0.012921464830473585
000490 42 9c af a3 54 be b2 bf c2 a1 bb 4d 32 1c af bf
       -0.07321671482314776 -0.06076199721229926
0004a0 3b 34 8e cd 8b 68 a0 3f c4 58 32 87 a2 69 8a bf
       0.03204762348386977 -0.012896795035242888
0004b0 e4 38 39 e6 c9 b9 53 bf 74 ab 09 27 67 54 a6 3f
       -0.0012039634392695892 0.04361269332442577
0004c0 ee 4f 55 89 65 65 8b bf b9 c2 3e 28 98 5c 93 3f
       -0.013376992467478001 0.018907906967515518
0004d0 de b9 b7 d5 44 ec a2 bf 63 ea 15 89 d1 50 79 bf
       -0.036958838547309844 -0.006180590150843021
0004e0 a9 d0 71 22 0c c3 92 3f 20 38 b3 90 14 ed ab 3f
       0.018322171785670225 0.05454315439565982
0004f0 bb 98 f1 c6 b1 b8 8e bf 40 a1 6e cb 1e 17 79 3f
       -0.01500071419122794 0.00612556485331367
000500 8f 9c 4f 69 bb 51 b9 bf 29 5d 74 31 9c a7 9a 3f
       -0.09890338250225937 0.02603000690313909
000510 70 0a 0b db e8 66 86 bf 05 97 53 2a a5 1b b2 3f
       -0.010938471970239422 0.07073433192598706
000520 bf 2c ca 59 d2 c7 ad bf ca fa 3d 1e 98 b4 72 3f
       -0.05816514345232226 0.004566759311159083
000530 99 22 1f 60 00 7b 90 3f 0a 85 f9 7e 3b 6c bd 3f
       0.016094213358686636 0.11493274545638968
000540 73 49 28 ed a6 27 af 3f c6 52 fd d3 e3 06 92 3f
       0.060849396180986746 0.017604408086600264
000550 b5 8e c5 e0 8f 50 d0 bf ad b4 f1 f9 9a 68 94 3f
       -0.25491711569177805 0.019930287843113948
000560 a8 d8 a8 21 d8 a1 c7 3f 1f 61 01 ac 6c 0c 7e 3f
       0.1846265949586201 0.007336067676156937
000570 11 c8 71 3e 90 07 58 bf 9b d0 91 30 03 cc 90 3f
       -0.001466647017676074 0.016403245772793267
000580 65 0d df 06 bd a2 a0 3f c2 d7 77 e7 e5 5c 90 3f
       0.03249159535291816 0.01597937798756966
000590 79 4f e0 e9 70 d7 b3 3f 04 37 9e 92 77 9a a6 bf
       0.07750611982220147 -0.04414724030276143
0005a0 9f 32 82 8a 8c a9 a4 3f 5e 21 8c 5b 81 21 9b 3f
       0.040356056125437016 0.026495000088318725
0005b0 d6 19 fc 74 85 b1 c0 3f a5 23 64 2f 5e f2 a3 3f
       0.1304175206389135 0.03895849541192512
0005c0 45 8e 6f 88 b1 be a3 3f df 17 43 99 f0 92 97 bf
       0.03856425085521357 -0.02302146850049513
0005d0 b5 37 33 81 37 40 97 3f 80 5a 1b c3 8b 30 83 bf
       0.022705905209299455 -0.009369937793434646
0005e0 9f 54 5f 5d 24 ce 9d bf c9 a6 b0 5c db a3 ae 3f
       -0.02910668201350985 0.05984387880773807
0005f0 df f7 86 b9 ad 6e 86 bf 14 a6 98 80 25 dd a2 3f
       -0.01095329019960539 0.0368434638479124
000600 11 93 e7 f9 56 da b2 3f c7 37 96 f8 0f d4 7f 3f
       0.07364410020052171 0.0077705978268464765
000610 b0 6c ec 1e 1a c4 a6 3f 50 f0 af 36 18 94 78 3f
       0.04446488978848018 0.006000609001599669
000620 0e 14 64 d4 cd df ae 3f 78 86 bf 2d 94 67 43 bf
       0.060301239182116814 -0.0005921815422846441
000630 ea d4 de 82 04 6c 9a 3f 6b b8 6f 02 43 f7 a4 3f
       0.025802679526994256 0.04094895748845392
000640 79 56 76 37 e2 56 a6 bf 8e 2e 16 b2 8f 94 b0 bf
       -0.04363161971120361 -0.06476686570948173
000650 34 00 ed 73 71 6e 85 bf 28 bf 8b aa 3d ea 47 3f
       -0.0104645598891012 0.0007298279861895672
000660 56 94 5a 3c df 87 2b bf 83 e7 45 74 83 b7 92 3f
       -0.00021004295392859873 0.018278173419708842
000670 9b c8 c5 e4 ff 81 73 3f bc 2a 92 8f d2 6b 9b 3f
       0.004762649139921883 0.026778497708202606
000680 65 7d 32 15 5c ce b2 3f 7d a6 92 41 3c 3c 8a 3f
       0.07346129910955808 0.012810202361225759
000690 06 36 87 f7 af dd 8e 3f 42 7c 04 2c bf 5d 97 3f
       0.015071272603473861 0.022818553029648088
0006a0 a6 95 61 d8 a9 3b a9 3f c0 48 e1 84 36 87 9f 3f
       0.04928332105991311 0.030789234028198775
0006b0 50 2a ea c1 0c e3 80 3f 09 de af e3 6e 80 b5 3f
       0.00824556319027639 0.0839909845234318
0006c0 d1 a6 9a 5d 76 dc 76 3f e5 9f 92 f3 bd 6a c2 3f
       0.005581343045983637 0.14388250725937649
0006d0 7c a0 a3 17 ce 9a 96 bf 50 af af 03 ec 19 8b 3f
       -0.02207490939409283 0.013233035910125729
0006e0 fc c6 99 80 96 bf 9e 3f d0 cd 4e 8b 40 bf 64 3f
       0.030027724837458955 0.002532602370104199
0006f0 05 e5 13 af 9f 24 b5 3f 67 0f 96 e6 8e 27 c0 3f
       0.08259008430822597 0.12620722064104514
000700 00 86 6b c7 8d cf 54 bf f3 e6 1c 59 5f e2 8e 3f
       -0.0012701878128428268 0.015080208689699037
000710 a0 8f 55 ff 91 5d 8b 3f 47 28 ea 3b f7 25 a7 3f
       0.013362064938242046 0.045211530746272426
000720 62 7b 74 86 55 11 a2 3f 42 45 7d d2 33 36 a7 3f
       0.035288498557057194 0.0453354067273133
000730 4e 13 76 99 45 15 9d bf e2 60 20 b6 0a 8f 80 3f
       -0.02840145825531986 0.008085330660876303
000740 8f 79 9e da 3e 5f be 3f 78 10 56 ec 63 e4 98 3f
       0.11864083135012592 0.02430873994809743
000750 03 0d 4f 54 a5 86 a7 bf de be ce 9d 05 82 ba 3f
       -0.04594914106521666 0.10354647734379394
000760 5c 45 34 7a 70 d2 64 3f 94 1f be a4 03 ea ab 3f
       0.0025417515586318284 0.05451976190585053
000770 3d 21 34 cc 00 4d b2 bf f2 7d 77 86 0b cf 6e 3f
       -0.07148747430267562 0.003760836134219175
000780 f5 9a 8a 74 f7 b8 b4 bf 94 1d 0a ee 23 76 89 3f
       -0.08094736666917497 0.01243236608685442
000790 41 ab 51 94 70 dd 9e 3f 84 f6 25 c1 e5 3c b1 bf
       0.030141600659060023 -0.06733547177824489
0007a0 a4 59 b3 81 4c 9e 91 3f dc 17 e1 94 d9 45 10 bf
       0.017205424705787245 -6.20760012860206e-05
0007b0 21 7f 5a e3 fa 80 a9 3f dc e1 6c b2 26 22 9a 3f
       0.049812164548028066 0.02552090133687722
0007c0 24 af 82 55 58 12 7c bf 9d f0 e3 71 65 12 a1 3f
       -0.006853432707582905 0.03334347739471009
0007d0 a7 6b 52 77 53 df 91 3f fd bb 3b d1 3b 8a 9f 3f
       0.01745348373206537 0.030800757070149832
0007e0 ca 4f af af 7d 0e 81 3f 99 3a 91 9f 36 8d a5 bf
       0.00832842056653495 -0.04209299753039381
0007f0 89 38 2b 10 6f 36 98 bf 9b ef c2 b3 ff 8b 7e bf
       -0.023645148622386123 -0.007457732044880229
