data and plots/W_2.npy (npy, 524416 bytes, 1 tensors)

array f8 [256, 256]
000000 63 dc 2d 35 28 00 8b 3f a2 ee 0e 0c 42 8b a4 3f
       0.01318389332094067 0.04012495419689556
000010 54 fa 37 09 51 c0 59 bf 3c 50 78 eb 17 a9 74 bf
       -0.0015717307441033461 -0.005044072567688625
000020 ae b8 a3 79 15 10 7b 3f ec 28 6e a2 ef e2 aa 3f
       0.006607135665246995 0.052512634828490196
000030 03 7f 84 32 37 c3 a2 3f fb 78 01 d6 44 26 86 bf
       0.03664562694234343 -0.010815179615914597
000040 15 80 b5 d4 bc 87 81 bf 29 2b 08 8b d1 ae 87 bf
       -0.008559680215228163 -0.011563908629815227
000050 42 46 c9 f1 b9 39 a7 3f 81 57 6d 8d b5 32 19 3f
       0.045362292065544554 9.6123057443746e-05
000060 ee 6f 4f f1 96 21 62 3f 5d b3 e4 d5 7e f0 af 3f
       0.0022132824037566145 0.06238170968058541
000070 7b 00 d3 bd ca 20 61 bf 8e ad 5c ed 8d a6 ae 3f
       -0.0020908317370356678 0.05986445925222049
000080 b4 05 0b 3a da 93 95 3f d9 73 6a 98 2c cd aa 3f
       0.021071824829737643 0.05234660492462923
000090 54 dd 19 b6 65 3e b0 3f 66 17 bb 6f d6 f9 8f bf
       0.06345210738969814 -0.015613246235613065
0000a0 3c 32 5c 86 29 cb 97 bf 75 2f e7 7e 94 4c 94 3f
       -0.02323593981332038 0.019823379750774934
0000b0 e0 46 0e 35 fa 42 8f 3f a7 cf 01 f6 23 0d a7 3f
       0.01526446794904096 0.0450221288491826
0000c0 5d 56 d2 b6 32 54 ae 3f dc 26 a3 25 06 b4 96 3f
       0.05923613053998331 0.02217111210555954
0000d0 7c e2 af 4f 58 8b a3 3f fc f4 f3 83 0b 0c b0 3f
       0.038172492721007395 0.06268379184253442
0000e0 fa 2a 94 e4 d8 08 83 bf 7e 83 88 18 3c 0b 90 3f
       -0.009294218516989517 0.015667857167616976
0000f0 7f b8 a5 c5 8e 22 59 bf 85 f8 cb dd b5 47 a1 3f
       -0.0015341181047819061 0.03375023205261222
000100 3f 7f c0 23 1e 72 5d bf 7e 2f b2 b6 ac e3 aa 3f
       -0.0017972273190096225 0.0525182698266624
000110 57 59 2d e8 79 dd b1 3f f0 9b de 84 c9 cb a9 3f
       0.06978570860278431 0.05038289782469707
000120 3a c5 b2 db 05 ca 63 bf fe 8d 26 b9 6c 72 a6 3f
       -0.0024156679551984557 0.04384174118174754
000130 dc ae 65 94 1b fa 71 3f 79 48 09 8a 8d ad a0 3f
       0.004388911946403087 0.03257410345089879
000140 49 e8 a3 15 09 9e 8b 3f b5 57 bd 05 37 79 ad 3f
       0.013485022519024297 0.05756542153419223
000150 5c 8f 53 ea d9 fd b5 bf 84 62 b2 b5 b9 99 91 bf
       -0.08590471239909675 -0.017187978472608126
000160 6f 3a 4e 87 82 02 9a bf b3 1e 39 56 92 dd 9e 3f
       -0.02540019942130772 0.03014210368408383
000170 85 68 b2 da 95 c5 92 3f 63 89 48 57 5b 80 94 bf
       0.018331853364181434 -0.020020892336228068
000180 f7 88 2f d5 0a 17 a3 3f 41 01 1b 3c 78 f2 a3 3f
       0.0372851739155226 0.03895927175244874
000190 23 c4 63 69 42 37 a1 3f e2 07 29 a5 ac 12 6d bf
       0.033624720921473526 -0.0035489437080124956
0001a0 ee 49 52 c0 39 b0 c7 bf c8 47 58 5f 8d ef 9c 3f
       -0.185065478236154 0.028257569260013132
0001b0 b3 a1 2a 2c b6 27 a8 3f a1 eb 0a 66 dd 33 91 bf
       0.047177975551054095 -0.016799411156835146
0001c0 f6 db db 06 1c 0d af bf 92 b2 be ac 1b 4d 61 bf
       -0.060646892392405435 -0.0021119633219853296
0001d0 ea 2b d1 80 a1 5c 9a 3f c1 e3 bc f1 98 75 9a 3f
       0.025743983733530408 0.025839223627574407
0001e0 f1 00 66 00 be 50 b3 3f a3 aa 8a c9 4b 6d 85 bf
       0.07545077810027913 -0.010462371910155815
0001f0 72 26 52 61 9b 72 99 3f 3b fe 38 cc eb f9 90 bf
       0.024851253333088193 -0.016578373279342733
000200 6d e4 ed 94 f9 7f 80 3f f0 93 f5 13 10 f9 90 3f
       0.008056592805347951 0.01657509919950323
000210 33 a1 22 66 da af bc 3f 51 f1 0d 12 e7 6b 7b 3f
       0.1120583056787197 0.006694700831641435
000220 32 43 f2 a9 7f 09 76 bf 27 08 19 5e 65 34 a3 3f
       -0.005380152403760262 0.037509124504609574
000230 7e c3 bd 13 b7 b6 c3 bf 43 89 79 37 60 a9 97 3f
       -0.1540135237114803 0.023107055078420712
000240 82 c2 66 df 2f c5 78 bf ee 5d b2 c5 e2 8f 9f 3f
       -0.006047427179894373 0.030822318378879325
000250 c6 56 a7 92 4d 14 60 bf d2 4a 59 28 b5 81 59 bf
       -0.001962806233886424 -0.0015568036191281787
000260 82 58 d6 eb 27 8d a9 3f 4a 36 01 68 e5 34 a2 3f
       0.049905059374553154 0.035559815355196436
000270 9c 25 7e 98 f4 f3 66 3f 25 29 d8 7c 04 fe b6 3f
       0.00280187389939064 0.08981349990805094
000280 cc ab c3 62 83 fc 3a 3f 93 b3 f3 fa 94 6e ae 3f
       0.0004117794767483612 0.05943742335680393
000290 d9 7c 07 cd c7 c3 a0 3f ea 1f 8f a3 0a 99 6f bf
       0.03274368646429488 -0.003857155589205509
0002a0 e1 53 49 a9 6a 8a b1 3f 2a 87 dc f4 fd a3 b1 3f
       0.06851832039804108 0.06890856960356176
0002b0 f7 45 16 46 7e fb c8 bf 2c 25 36 02 24 56 86 bf
       -0.1951749651166634 -0.010906487767686622
0002c0 d6 e2 86 22 59 56 a0 3f dd a8 8e 3e e6 65 92 3f
       0.031908784355840034 0.01796684033221473
0002d0 33 d0 84 2c 7f 00 9e bf ec 37 97 64 68 fa 99 3f
       -0.029298770038806942 0.025369292392319595
0002e0 0f f8 93 f1 8d b5 a6 3f bd 92 bc 93 0c 47 8a bf
       0.044353900660993976 -0.012830827959598218
0002f0 64 04 88 c7 a4 f8 a9 3f 60 6b 42 f3 ae 44 34 3f
       0.050725125653124065 0.0003092696308699041
000300 b3 85 1d 92 35 35 b7 3f 95 e0 03 f9 fa 96 a8 3f
       0.09065565888660991 0.04802688874946274
000310 d3 d3 4c e0 49 18 a0 3f f4 5a ae f8 c0 89 b7 3f
       0.031435307150253465 0.09194570609393421
000320 48 95 21 b8 9b 08 94 bf 1d 4f 41 ba 0f 95 84 3f
       -0.019564087975955574 0.010049937125735259
000330 83 a3 76 26 4f aa 4e 3f 97 57 14 1f 44 69 3b 3f
       0.0009358297801799062 0.00041826165313929006
000340 a2 e3 d8 69 de 41 26 3f b4 30 5c cb 23 1c 7f bf
       0.00016980972297789022 -0.007595195600299021
000350 e0 b1 73 bc 62 d4 a0 3f 1b ad af d7 42 85 6f 3f
       0.03287037420691141 0.0038477235334447696
000360 b9 46 59 68 86 39 69 3f 68 0e c6 f2 4c 49 bf 3f
       0.003079187884204551 0.12221222807971233
000370 cd 25 db 7a 11 a8 5d 3f d1 d0 25 3c b7 fa 56 3f
       0.001810090131970521 0.001402548733122667
000380 7c 3f 56 8c 34 28 89 3f a4 ac 66 4b 31 60 ad 3f
       0.012283716709845065 0.057374515966637035
000390 2d 8b 8e 2c 00 b1 8b 3f 95 ed e4 0c fe 5a ad 3f
       0.01352119575478169 0.05733484179878726
0003a0 97 3f 68 99 59 98 93 bf 82 a4 5d 77 5f 78 84 3f
       -0.019135856617196714 0.009995218115095964
0003b0 c1 0e 3c 27 b4 04 c4 bf d2 2b 0c 2d 2f 32 6b 3f
       -0.15639354625465354 0.0033198281674961883
0003c0 33 d7 30 b4 9b ce a2 3f 11 05 3f ea 6a 95 9a 3f
       0.036732545610375665 0.025960608050586368
0003d0 b9 e0 86 53 fe e4 a0 3f 66 86 f6 af 6c 97 a0 3f
       0.03299708146681852 0.03240527770982453
0003e0 b1 17 58 6f 3f f2 92 bf b0 fe 81 be ab 77 85 3f
       -0.01850222699251675 0.010482160331093254
0003f0 24 c9 1d f6 ae 07 a7 3f fe a8 23 bc 1a 14 a0 3f
       0.04498049501752835 0.03140338465330393
000400 40 07 b6 df c5 f8 b6 3f 44 6b 47 5e da f0 b1 3f
       0.08973347388930808 0.07008137513859675
000410 f6 59 89 44 e5 f6 83 bf a3 9f c8 8b 3d a1 33 bf
       -0.009748259691304089 -0.00029952766979812246
000420 3f 6b 9c 72 b9 13 a6 3f d1 8a 06 0b 98 62 ab 3f
       0.043119235268213256 0.05348658690060904
000430 5a ea 5b 90 bc 0b a4 bf d0 32 a7 41 a4 d4 95 bf
       -0.03915204298205728 -0.021318975932262785
000440 e2 8e a7 f3 26 3e 8b 3f 09 59 66 1d b0 2f 94 3f
       0.013302139578577014 0.019713165087147853
000450 8e 43 9a bd 9e f7 9a 3f e1 a6 41 e1 f4 5b d4 bf
       0.026335220644401462 -0.3181125831384702
000460 22 c0 c6 af 8a d8 63 3f 44 7e 90 a1 e9 a6 82 bf
       0.002422591087643881 -0.00910742306046964
000470 3d 8e f5 f5 79 ce 88 3f 0d a6 b3 d7 3b f1 84 3f
       0.012112572496966506 0.010225741882510265
000480 57 01 54 d4 d2 a9 87 bf 79 1e a0 75 d9 fe 7e 3f
       -0.011554381470433013 0.007567262126037749
000490 f8 fa 77 7d e0 34 aa 3f eb c6 9d 68 9e e9 ac 3f
       0.05118466884231582 0.05646986987166066
0004a0 48 5a 8c 06 f6 45 b1 3f a3 32 49 56 14 61 ad 3f
       0.06747377071256111 0.057381282360983187
0004b0 91 07 80 c8 42 86 53 3f 41 37 c8 ef d8 0c 85 3f
       0.0011916782550547048 0.01027841073758007
0004c0 0d 95 6c e2 b3 67 9f bf af 70 c0 7c 04 ca 72 bf
       -0.03066903180583318 -0.004587190178451702
0004d0 d2 cf 22 34 1c 33 96 3f d6 1c f4 ae 78 1f 70 bf
       0.021679344827773957 -0.003936263484553856
0004e0 1a 69 a8 d0 c2 67 96 3f 0c b2 a0 3a 81 60 a2 3f
       0.021880191789116578 0.03589252319975253
0004f0 4a 52 07 1e 3d fb 96 bf 12 cb 34 e3 e4 bc a1 3f
       -0.02244277473239923 0.03464427255166504
000500 e7 e6 a7 67 1d 04 41 bf e9 89 f3 f1 69 38 9a 3f
       -0.0005192893580094588 0.025605826752220926
000510 46 05 47 8d 6d 15 96 bf d8 63 73 36 18 4f a3 3f
       -0.021566116092576658 0.03771281876260674
000520 c5 30 19 9c b0 4c a9 3f de d2 ae 78 6f b8 6e 3f
       0.049413222365360755 0.0037500550438046417
000530 05 7e 5b ba 48 ea b0 3f 6c 8f f4 cc cf 9d b0 3f
       0.06607489156476028 0.06490801576415856
000540 e2 be 5a 57 7c 30 70 bf 5c 9f 3b 92 c2 98 39 3f
       -0.003952489574359426 0.00039057493471127635
000550 d7 b9 82 70 69 5e 98 bf 5f 44 7f c1 5b 39 8c bf
       -0.023797652713875763 -0.013781277506412502
000560 df a5 90 5e 86 66 44 3f e2 66 75 5f 08 67 6f bf
       0.0006225734806594682 -0.0038333095105088514
000570 68 92 af 53 b8 5d 3c bf f0 73 84 2c 33 0f a4 3f
       -0.0004328322426643606 0.03917846601891728
000580 e3 2c e6 1c be b4 52 bf 8a ce 5c 05 5f 67 ad 3f
       -0.001141725213161853 0.057429284481625834
000590 75 f7 ce c2 e3 e7 90 bf 60 98 db f2 45 a1 75 3f
       -0.01650958897129536 0.005280755269018028
0005a0 c9 a1 a7 7e ee 3c a3 3f f5 ec 51 f7 17 68 76 3f
       0.03757424636916402 0.005470365159563108
0005b0 b8 ba 47 c7 c3 2e b7 3f fd 4d 0e c4 b1 0c 93 3f
       0.09055732360114177 0.01860311278467285
0005c0 18 6d 35 0d 3b 5b 85 bf c9 ae 9f 53 96 94 85 3f
       -0.010427914944264802 0.010537313868517544
0005d0 cc f1 82 e5 e5 7d be 3f 16 df 5c 56 02 d3 7d bf
       0.11910855153377681 -0.007281312113086155
0005e0 e7 c1 29 77 a4 bb 9a 3f a5 b6 1f 91 63 83 76 bf
       0.026106424115313855 -0.005496396001019176
0005f0 20 2b b1 c5 c7 09 80 3f d5 8d 1b 1b c2 3a 9f 3f
       0.007831154556830422 0.030497582344549762
000600 01 69 d5 72 b9 47 b2 3f cf 67 45 68 98 36 9e bf
       0.07140692761950974 -0.029505139698222934
000610 5d e2 d7 bc 9d eb bd 3f d2 4f 8d 4b 79 45 8c bf
       0.11687646732742381 -0.013804385774768866
000620 c1 03 73 9a 33 50 9d 3f 9a 56 92 9a 34 fa c2 bf
       0.028626257230601974 -0.14826066539233268
000630 07 76 2a d8 82 b2 ac 3f 8a f9 85 58 22 08 ab 3f
       0.05604943169349146 0.05279643374068417
000640 c2 7e be dc f5 83 8c 3f 94 30 b2 c9 e2 41 72 bf
       0.013923569487644175 -0.004457364931237735
000650 00 fd d4 15 36 61 b4 3f 20 f2 63 d9 fb 1d 57 3f
       0.0796083262730356 0.0014109572853718902
000660 e2 90 bd 41 7d 6d a0 3f 27 f8 ce 73 81 37 65 bf
       0.032085336947405244 -0.002589943730042971
000670 c8 73 5b 20 e5 61 b1 3f 2e 62 72 d4 19 ce 9f 3f
       0.06790000953647202 0.03105965003178051
000680 0e 30 bd 5d 24 2f ac 3f 4b 0c 5c de 1d 6e 81 3f
       0.05504716533923225 0.008510812137961695
000690 27 8c 54 6b 90 45 86 3f 79 40 93 c3 b9 7c b3 3f
       0.010874870562991813 0.07612191223893373
0006a0 b6 e3 bf 79 bc 33 a2 3f f3 ae ee d8 8c ca 8a bf
       0.03555096613121782 -0.013081646318674233
0006b0 8c 97 f4 4b 50 93 a0 3f ce 91 ea ea 2d b9 a0 3f
       0.03237391402426146 0.032662806440643885
0006c0 2a 53 b1 a9 06 ff a8 3f 66 4f f7 45 5f 55 97 3f
       0.048820694174230475 0.02278660645045196
0006d0 cb 26 96 f6 30 cb b0 3f 87 43 a3 c0 3c 80 31 bf
       0.06560045261553708 -0.00026704295363538143
0006e0 68 d6 1c 13 db 13 81 bf 35 ce 75 6f 4d 14 b2 3f
       -0.00833865310742539 0.07062229129024263
0006f0 48 0e 75 7d 90 f0 91 bf 90 11 db 81 94 1f a1 3f
       -0.017519242913534933 0.03344406209137951
000700 35 07 24 b1 9d 3d d0 bf b2 46 58 5c e0 5b 80 bf
       -0.2537607412233343 -0.007987740343227887
000710 4c b2 5c 89 c8 73 bb bf 4a 4a 38 1b 50 9e 91 3f
       -0.10723546365324771 0.01720547834527001
000720 7e 26 4b f1 a9 34 a7 3f 4c 28 c6 f1 af 00 a7 3f
       0.04532366819837551 0.044927118552621964
000730 ac de bb cb 40 e3 9c 3f 5e da ab a6 3f ce a5 3f
       0.028210651812485096 0.04258917722284104
000740 d8 c5 b9 97 24 6f a9 3f 85 e7 40 a3 94 df 6f 3f
       0.049676078339768004 0.0038907912330871674
000750 9a e5 21 96 80 77 a1 3f a1 42 20 4a 37 04 74 bf
       0.034114855124197166 -0.004886833166907551
000760 ab ad d1 64 0f dc 89 bf 97 e2 d1 a8 73 49 b4 3f
       -0.012626762642148423 0.0792457854421492
000770 ab d2 22 8c 28 7b 7a bf 13 b0 04 8d b8 4c 89 bf
       -0.006465109241777493 -0.012353364757096618
000780 6b c7 9a 0d 69 0f a9 3f 34 33 44 d3 a7 eb af bf
       0.04894569674560397 -0.062344784297329175
000790 e6 25 07 a2 7e e3 9d 3f 4f ed 3e 3c 97 e1 93 3f
       0.029188135756873644 0.01941524796687349
0007a0 5d 45 66 a0 9a 21 8a 3f 8b 47 53 49 83 30 8c bf
       0.012759407062534473 -0.0137644058944806
0007b0 ca 9c 28 d6 ef 5a 5e bf 43 b8 e4 74 ee 39 a4 3f
       -0.0018527357248190762 0.039504482049196564
0007c0 c0 84 b9 2d ec 88 89 bf 4d d7 58 b8 40 7c 85 bf
       -0.012468190331846762 -0.010490899682831812
0007d0 e3 32 4c 94 29 0b 8b bf 8d 91 75 de 69 eb a5 3f
       -0.013204884374795117 0.042811687856359894
0007e0 7e dd ac 3e ec bd 99 3f 12 c5 f6 ae ba 86 70 3f
       0.025138560605424846 0.004034737808454441
0007f0 58 b2 58 d9 39 0b aa 3f 03 0c 86 77 12 14 86 bf
       0.050866897374679254 -0.01078047206170219
