data and plots/W_3.npy (npy, 6272 bytes, 1 tensors)

array f8 [256, 3]
00000000: 11c0 384c 9067 b6bf d163 ac1e 8507 bb3f
00000010: ede9 b80d d585 9d3f bd72 a2ea 0826 b7bf
00000020: 9b6f 2039 63a4 b03f 0cb1 ce7d 9c11 b33f
00000030: 379a 67a4 e779 bbbf e24d 6083 967d b03f
00000040: 0d23 95e2 a435 b93f c3f6 cef1 2bf4 b7bf
00000050: 2718 f706 523f a13f b383 85c3 1a03 b43f
00000060: a00f 6a7e cb47 bebf e322 e99b 9b07 b23f
00000070: 4e4a 8e57 a7de b93f 9f70 0eac c159 c1bf
00000080: 99b5 c4c0 de65 ba3f 0601 d3f0 e25a b23f
00000090: d92c 17f3 8ba8 b8bf cb2a 628a 3fa3 b23f
000000a0: dad3 20f6 cb81 ad3f 1135 e055 fc13 b9bf
000000b0: 7b88 53f7 5d01 a63f dd05 b760 df1a b53f
000000c0: 246c 802b c7e9 bfbf 4f49 af20 1888 b03f
000000d0: 2cae 7f50 5868 bc3f be52 b91d 75b3 bcbf
000000e0: c5d0 3c7e 16eb ac3f 56d9 415f 530f b73f
000000f0: a99d a1ee 7244 c5bf 5a40 cbfc ef1b bf3f
00000100: a9d8 4a1e 4e5b b83f e389 0202 8273 b93f
00000110: f358 6409 21b4 c6bf 79cb e2fa 7b62 bc3f
00000120: 8f2d fa10 5117 bcbf 59b9 2a8e 6f72 a63f
00000130: 783c f215 7ce4 b93f da2f 4ccd b49f cabf
00000140: 8762 8e2a b298 bf3f 873e 2cb0 20d4 c03f
00000150: a464 d48c d8ae b9bf f4af 44c4 12a9 bc3f
00000160: 6f1b 000d 9909 9b3f 58f6 6a3f 3145 c6bf
00000170: 1934 acba b493 c03f 1c8e 6279 1fd6 ba3f
00000180: 18cb 107f 2a8c c4bf ebd8 ee4b c909 b33f
00000190: 24d0 4076 c5e7 ba3f 960d 025b 98bc babf
000001a0: d0a5 ffa3 ae81 b53f 1e3a 929e d57d af3f
000001b0: 9d87 fd3b eecc ccbf c32a ac6e b34b bc3f
000001c0: 7488 838d 0042 c23f 604a b618 1749 a63f
000001d0: af01 60b8 6b15 c0bf cea5 00ad e05d be3f
000001e0: 9353 ae07 3ced b1bf 148f c06a 3212 973f
000001f0: b645 f749 3640 b93f 0048 d018 0635 c0bf
00000200: 307b 87e8 624e b33f f4ea 7720 58be b83f
00000210: 4d3d 9e5e 3f94 c3bf ea04 c174 f9cd b03f
00000220: c13f 5c45 c46d c13f b9db cb3b 8742 babf
00000230: 5753 7b75 8f1c ae3f bb20 be79 01e7 ac3f
00000240: 2cbe 126a 69de babf 79dd 167b 2c7f b63f
00000250: 41fe 2ff4 e6fd b03f f336 b4c2 2eab c7bf
00000260: 81e4 71eb 775e ba3f 0ba2 6cd2 9532 bc3f
00000270: d57f bafa 8cd6 bdbf 512f ca28 0b0c b63f
00000280: ea58 1d74 e337 ae3f 8552 237a 0908 bbbf
00000290: 6fea 7bb2 bdc2 b83f 3c1d 78d1 fa3b ad3f
000002a0: 5131 2dd5 0b88 c1bf 5050 373a a049 b23f
000002b0: d06c 1bf0 4d01 bb3f 4031 95ce 8330 9d3f
000002c0: 99d2 4840 2201 babf 26f4 7d4e 9e5f bf3f
000002d0: 1993 9b3f 1356 d2bf bf59 24a5 ddcf c43f
000002e0: b1af 47e5 7a82 c43f 6bef 2a57 1ced bebf
000002f0: a169 d015 b6f1 b13f e4ba 79ac 24e0 b93f
00000300: 6a8a 7d9b 827f c3bf 314b e7ad ac5f b43f
00000310: a8ea 8ab2 f487 c03f 34c9 0f98 ea62 cbbf
00000320: 7cd6 a9cc e56c c23f 277a 99d7 76f0 bb3f
00000330: c86c 97cf 507c cdbf feb5 91ca f833 c03f
00000340: b767 2b90 464b c33f fdea 196f 7acc c6bf
00000350: b2f1 524b 43f8 b63f 65a9 2c29 8905 bc3f
00000360: 367f 5847 e8ec b8bf 6deb c2bf 0eeb a33f
00000370: daf5 be83 e861 b73f 4569 2b31 1870 babf
00000380: 4bc3 01fc d760 b73f 8441 4693 f10b b13f
00000390: 3ea8 ec64 c9b1 b8bf b3a5 98b9 d348 ac3f
000003a0: c5ad f41c d657 b93f 4808 c06b 4397 c0bf
000003b0: 82fd 7b4f 50c0 ae3f e4f2 f6fe 3d2b b53f
000003c0: b877 4980 4fe5 bcbf f955 14e0 15b4 c03f
000003d0: 0105 af72 6f4a 983f c84f 8654 6ce9 cbbf
000003e0: e3c6 3ff3 5e27 c23f 73bd 824d c461 ba3f
000003f0: d415 cf21 36f4 d23f 89e5 3d48 dc4e 883f
00000400: b116 17a7 e35b d1bf 0e10 5c61 ca78 a13f
00000410: 81f9 c3c0 9e37 b3bf 8b73 031c 899a b53f
00000420: b108 c66e 454e bbbf 78bd 5735 d85a aa3f
00000430: d84e ea17 92a2 b83f 9419 b3db 1b50 b43f
00000440: 5286 c4fc b756 c9bf 1e90 58d2 dc40 c43f
00000450: 1fb1 940a 60be bdbf a276 c84c 072b b13f
00000460: 6019 f344 6b38 b73f 33be cbfe 8b37 b9bf
00000470: f72d 41be a564 9f3f f665 3abf 8533 ba3f
00000480: 89b3 e3f2 57c6 e0bf 6ba9 883b 38d7 d33f
00000490: d537 7275 c783 d03f 4d10 101f ed51 d6bf
000004a0: 9a95 5c6a cf45 cb3f c5c8 74c9 8a6c c53f
000004b0: 1116 61b8 2e35 c6bf 426b 52e7 ab9b b93f
000004c0: 0487 bf2a 9b06 b93f 0674 1b77 c74b 64bf
000004d0: fb0f edf2 aec4 b4bf 1f16 84c2 f7e3 bd3f
000004e0: ff0a 85d4 acfc d33f 0b3a f03b 7332 b23f
000004f0: 74e6 1f44 9874 d6bf edae 0c81 f91e bfbf
00000500: 5d8f c10a 7464 b13f 1af9 a4b2 ebaa b73f
00000510: e8b6 4022 450a c4bf 11a3 cf1a 34fc bb3f
00000520: 3552 b09f 30f4 b53f 616a 8aa6 d2ca babf
00000530: 2411 f363 34d0 a83f 1076 e202 f10c ba3f
00000540: 6aab 24a1 4d24 db3f 40c8 a950 57f5 d73f
00000550: 2e5e ebcf 4e2b e8bf 950e 1db0 9369 babf
00000560: e681 48af 4f38 a53f c6fc 467a 3618 b63f
00000570: 1054 6d49 50d2 d33f 3ba0 a948 b95d e1bf
00000580: 3e0d c23c 986a d13f c815 2490 0b87 bdbf
00000590: 9620 e2d7 d590 a83f 3a92 1937 fbe6 b43f
000005a0: d805 0aa8 e0f6 d2bf 2a7c 6f66 9a79 c73f
000005b0: 3784 54bf 5f86 c23f ec80 abc3 45f4 b8bf
000005c0: aee7 559b 2c7c af3f 3baa 4d40 a8f4 b03f
000005d0: 3b4d 3a94 6729 af3f 094f 9a5d 3458 c8bf
000005e0: 7eb1 00af 34c7 c43f 9d8e 6542 7b37 c1bf
000005f0: 6a50 0dce a2a0 af3f fd51 c2cd 284f bf3f
00000600: 5c13 d45d fe80 c3bf 56b9 8c41 3222 ad3f
00000610: a124 25cb 431f bc3f a0ba f16a b0ac c0bf
00000620: cbf9 61f5 358e b53f 457a c1d7 e7ba b73f
00000630: 8c28 46d8 988b d5bf faf0 0c77 91f8 d03f
00000640: 0da3 e852 8cea bc3f 7c08 75a1 6da0 ccbf
00000650: 3dbd a909 0cc0 c23f 57f6 1bbf f837 b83f
00000660: a71a ee6e c53e bbbf 6790 37f2 b02a ab3f
00000670: fb74 65ed d51b b73f 1d4e 9669 2408 c2bf
00000680: 9111 f933 8719 b03f 5881 7190 292d ba3f
00000690: bfd5 741d ddfc ca3f 5bf9 19cc 0d1c dabf
000006a0: 8a46 5d67 62a4 cf3f 536f 6d4d e8ab bfbf
000006b0: 610a 6101 388c bb3f 5763 0045 803d ab3f
000006c0: 595e 2cc3 0ffc b8bf 840b 5630 efa0 a63f
000006d0: 008a 7302 7cd9 b63f 1861 05ad 75d5 7cbf
000006e0: 0b32 a24e 7fbc b73f 66fc cec0 45fd acbf
000006f0: 30ee f128 dc23 c03f 79d2 4d76 cbc2 cebf
00000700: d7a5 ca37 fe03 c33f 088d cb14 4898 bdbf
00000710: 2b2a 9465 9869 a73f c4c4 dfc1 382d bb3f
00000720: e399 912d 806b bfbf abec c8e4 5649 b93f
00000730: 6a29 59e7 161c ac3f d6d9 4870 e0db 9b3f
00000740: 43c3 2b39 fa7a b83f c833 040c 0e7f b2bf
00000750: 9373 fd8b 14c3 b7bf f07f 7464 628d a13f
00000760: 3e75 2073 dd51 b23f 1443 1d45 17f4 c4bf
00000770: 9aab 2006 f425 bc3f fb9c 5d5c 5318 b83f
00000780: 0790 9af6 a77a cdbf 5d34 9ac3 9078 c13f
00000790: fa70 5681 d81c c03f baec 5aa9 64fc c7bf
000007a0: 8404 ba52 87f0 bc3f c6df 497c add5 c03f
000007b0: 11ec f8e0 bff3 b5bf 3c3a f704 a6f2 b13f
000007c0: fe45 d82d 6de0 ab3f 3ce9 1efa dd81 c0bf
000007d0: 30f2 6a61 adce b53f 937f 165c 13a1 ba3f
000007e0: a081 1102 0d1a c3bf 197a 3857 0497 ba3f
000007f0: f068 719f f0eb b63f 0a0a 91af 5019 c9bf
-0.08751775608902813 0.10558349608289964 0.02883084198240653 -0.09042411545164959 0.06500835556692978 0.07448747703046282 -0.10732887042795701 0.06441631991793131
0.09847479373742037 -0.09356951383139304 0.03368622145676197 0.07817237161135786 -0.11828300319944995 0.07042858654416366 0.10105367553323072 -0.1355516519660158
0.10311691480884234 0.07169931773660573 -0.0963218182070479 0.07280346992971969 0.05763089541907336 -0.09796120735719095 0.042979179803084265 0.08244129286961006
-0.12466091930439 0.06457663343397722 0.11096717801381634 -0.11211330390626537 0.05648107806192252 0.09007760120025429 -0.1661513962928727 0.12152004167296707
0.09514320601997163 0.09941875981397845 -0.17737210234253772 0.11087775111336197 -0.10973078407749014 0.043841825584751866 0.10114264999195821 -0.20799884819314124
0.12342370547265534 0.131473623296632 -0.10032418668960702 0.11195485393244536 0.02640380040977724 -0.17398658367703734 0.12950762858272993 0.10482975686550627
-0.16052752689719152 0.07436807731469101 0.10509904992142133 -0.10444023343921169 0.08401004318115857 0.06150691567119203 -0.22500398568359695 0.1105301041790581
0.14263922605374868 0.043526384131060025 -0.12565371039091874 0.1186199591035326 -0.07002616107486252 0.022530353322635824 0.09863604837234771 -0.1266181584510946
0.07541483094199175 0.09665442269026042 -0.1529616558077386 0.06564292049826617 0.1361623133348058 -0.10257764062758569 0.05881164845565106 0.056449934111755216
-0.10495623435667117 0.0878780174742725 0.06637423955543743 -0.1849115801527926 0.10300397394338924 0.11014686953843282 -0.11655503388692463 0.0861212706169543
0.059020145343923705 -0.10559138519176699 0.09672151191254284 0.05709823424336455 -0.1369643011952442 0.07143594189921143 0.10548865425100762 0.028505382045566963
-0.10157980031437787 0.12255277077015644 -0.28650361262980223 0.16259356082509943 0.1602319354564066 -0.12080552223318157 0.0700944712884053 0.10107640467479545
-0.1523288020353733 0.07958487744990063 0.1291490432539224 -0.21395618843923503 0.14394829266864295 0.10913794292125854 -0.23035631309799087 0.12658605471681023
0.1507347301438224 -0.1781151812063725 0.08972569073643547 0.1094594693683227 -0.09736491910780107 0.03890272227132283 0.09133771149114214 -0.10327292633465841
0.09132146742355222 0.06658849568908037 -0.09646280969596518 0.05524312630252428 0.09899652678421152 -0.12961619149433745 0.060060987188985684 0.0826910731766009
-0.11287400133139058 0.13049577180269958 0.02372144830201695 -0.21806100966625608 0.1418265044917951 0.10305430309630541 0.29615548421528826 0.011869164423603322
-0.271233475851072 0.03412468374702381 -0.07506744581403348 0.08438927587435623 -0.10666307405884613 0.05147433901935988 0.09623063167446888 0.07934736360321032
-0.19795894472285852 0.1582294489936666 -0.11618614443131435 0.06706281303965025 0.0907046359380721 -0.09850382776834792 0.030657376992435172 0.1023486701837085
-0.5242118591246349 0.3100109654793843 0.25804316014625545 -0.3487503817889362 0.21306793874206847 0.16737494312980608 -0.17349800112621996 0.1000316085577824
0.09775705140739538 -0.0024775405698691548 -0.0811261504250637 0.11675976275372378 0.31229706529499873 0.07108230794276708 -0.3508663811950108 -0.1215663852751125
0.06793904554939219 0.0924517928260439 -0.15656341717242772 0.10931707052771979 0.08575729273463469 -0.10465733114180288 0.048463475418915075 0.1017599708597674
0.4240907739319285 0.37434943082110195 -0.7552866040159125 -0.10317347573896492 0.0414452458828725 0.08630695805821906 0.30971152468311036 -0.5426908892814092
0.272131022771834 -0.11534187573496191 0.04798000583929356 0.08164949507915589 -0.2963182106978741 0.1833985328839572 0.14472576944629775 -0.09747730280969663
0.06149424930750001 0.06623317308336933 0.06086276707096735 -0.1901917893452423 0.16232927842191808 -0.13450566045786597 0.06177243008883766 0.12230162642874372
-0.15237407285180893 0.056901522161171655 0.10985206327053955 -0.1302700540722599 0.08420121422566422 0.09269570367312337 -0.3366453277636843 0.26517140031843633
0.11295392059458838 -0.22364588149691034 0.14648581001118002 0.09460405984642627 -0.10642656286482098 0.05306008297682823 0.09026848836716177 -0.14087348132726243
0.0628895284544966 0.1022516229290934 0.21084178865718958 -0.40796227390082657 0.2472041134556558 -0.12371684923476538 0.10760831864994592 0.053203590796505544
-0.0975961543557501 0.044196581507114835 0.0892560487732581 -0.007039508506146562 0.09271999044194261 -0.056619815622519096 0.12609436034459653 -0.2403196647316184
0.14855935787390592 -0.11560488231366517 0.0457275032041092 0.10615877850775052 -0.12273408043402116 0.09877532086913969 0.05490180563045295 0.0272059505971017
0.09562648673796752 -0.07225120347375402 -0.09282043855405524 0.03428180195101038 0.07156166134560224 -0.1636990630600158 0.10995412015533504 0.09412117962857629
-0.2303056673164294 0.13649186659714277 0.12588030162158487 -0.18738992947860372 0.11304517526333951 0.13152092522409314 -0.08575057260979714 0.07010877248033237
0.0544466131651795 -0.12896322930266446 0.08518489483226044 0.10402031896819457 -0.1492325077151806 0.10386683587464808 0.08953765766765165 -0.19608505795083914
