data and plots/W_3.npy (npy, 6272 bytes, 1 tensors)

array f8 [256, 3]
0	0xbf9364aa7844c917	-0.018938697424524777
1	0x3fa77af9b6afcc64	0.045860103178619466
2	0x3fa27fc3705a8893	0.03613100763802026
3	0xbfa024ee0dc5fc80	-0.03153175275928621
4	0x3fa363035fa3d18e	0.03786478559951255
5	0x3f979afb38e3a415	0.023052144381754475
6	0xbfa1f76262a092cc	-0.03509051755853462
7	0x3fa9fa75d096e531	0.05073898478753803
8	0x3fa3f6a5ec513fef	0.038991150948845525
9	0xbfa5c8e8092932d2	-0.04254841911151676
10	0x3fa1f2b95187d03f	0.0350549613976061
11	0x3fa2d335c27f6e81	0.03676765441170194
12	0xbfa4adb6c5f91582	-0.040387832323669506
13	0x3fab669342a1f732	0.05351696194064316
14	0x3f904b360753a443	0.015911907384097878
15	0xbfa30766bfe1e485	-0.03716584293665285
16	0x3f9d6f901eef3016	0.028745891464311134
17	0x3fa465a1b8a7a7c5	0.03983788851822071
18	0xbfa37f9c97bf2e84	-0.0380829749334142
19	0x3fa22bdfe03c5053	0.03549098598719582
20	0x3f9c62be83fcb4c6	0.027720429235320386
21	0xbf9c0009be8c1749	-0.027343895201759314
22	0x3fa38b5b3f869eb3	0.03817258024656436
23	0x3fa2ed6b7e5824ee	0.03696762006081565
24	0xbf9c9ef764ee77ca	-0.02795015862977105
25	0x3fa5641a6a957911	0.041779351721503606
26	0x3f9cfc9a819de55d	0.028307356034450993
27	0xbfa0973c76be2f0a	-0.03240384053705554
28	0x3fa5430f3d331d24	0.041527248593008076
29	0x3f9d653b39a9122f	0.028706479448617536
30	0xbfa07da28560ed8a	-0.03220851781994856
31	0x3f97103e9c7e8591	0.022522905637406835
32	0x3f9d80f14e46a275	0.028812189486105717
33	0xbf94fc34dbd5a8c7	-0.020493341367377817
34	0x3f9c9cf79443c680	0.027942531990396535
35	0x3fa2fc66b2f4912f	0.03708191809190208
36	0xbf931597ec6c945a	-0.01863705997961449
37	0x3f989954525d0c12	0.024022405173365576
38	0x3fa57e541fed30b0	0.04197943582275465
39	0xbf9a09a9e6b78440	-0.02542748900112124
40	0x3f9a54edec33cc8a	0.025714604894301142
41	0x3fa577b1df50cc9f	0.04192882395764141
42	0xbfa21de3f34dc795	-0.035384295892881536
43	0x3fa37e3510e25ae0	0.038072260199603525
44	0x3f9b8eb0f0f82867	0.026911511142352042
45	0xbfa53bd4feeb8097	-0.041472107046275734
46	0x3faabb531bd383ea	0.052210423609501636
47	0x3f9653dfa92a7350	0.02180432767873991
48	0xbfa0cd6acb83cd83	-0.03281720861732664
49	0x3fa929f7d30b3759	0.049148315918144454
50	0x3f9e55eb371a19a4	0.02962462924781452
51	0xbfa290699a3d5ee9	-0.03625803001221845
52	0x3fa304fa5c287833	0.03714735388733494
53	0x3f958d6231bd0d38	0.021047148023410872
54	0xbf9ff1f781cf25d8	-0.031196467683718726
55	0x3f9d834d5666f52b	0.028821190260477508
56	0x3fa01407368914e9	0.031402802855646623
57	0xbf957679752a5761	-0.020959756637771835
58	0x3f9838842d1814a4	0.02365309262497263
59	0x3fa58656fe9d100b	0.04204055650782842
60	0xbf92e9bb8de3ab4e	-0.018469744239080037
61	0x3f9394bff0a1cb10	0.01912212282372666
62	0x3fa2b6c228d12c98	0.036550586206965
63	0xbfa34e61cc5c2562	-0.03770738238933792
64	0x3fa57189e9fa3ec8	0.04188185673876671
65	0x3fa769f4feae8546	0.04573026284129837
66	0xbf97b070acee834e	-0.023134003214752945
67	0x3f93948ae1686e5a	0.01912133217602583
68	0x3fa373cbca6b5bb0	0.0379928288072543
69	0xbfa3f3f01bdaf5fb	-0.03897047367125236
70	0x3fa42352662c5a64	0.03933198449356182
71	0x3fa5168f25d8acde	0.04118773781768835
72	0xbf99b64b90089373	-0.02510946337328641
73	0x3fa998d8f1c071d1	0.04999425841399197
74	0x3f96fa8a8c0e0502	0.022440113828911208
75	0xbfa3e8bb22a6576e	-0.03888497159930081
76	0x3f9d5ffe476fd28b	0.028686497793347015
77	0x3fa18a5938f61f3e	0.03425864048318637
78	0xbf9ca4a52419c42d	-0.02797182114449386
79	0x3f9e42cce7bf842e	0.029551698345930237
80	0x3fa6d6e49e269ef5	0.04460825377037551
81	0xbf97633c0cd11b09	-0.022839487345005547
82	0x3f96763d8318ef10	0.021935425879049453
83	0x3f9a3953ca556f31	0.02560931131789274
84	0xbf93314d5a8e616c	-0.018742760326490623
85	0x3fa709bef2cc00ae	0.04499623025731246
86	0x3fa4d423e825b7b2	0.040681001747415194
87	0xbfa71d2f9f8b7062	-0.045144546724004156
88	0x3fa798a07fd467ab	0.04608632622166849
89	0x3f99056d87ce94cb	0.02443476811790361
90	0xbfa15fa303a3c618	-0.03393277568273961
91	0x3f98fd3e4dd04f3a	0.024403546809551126
92	0x3f9d3872c2597787	0.028535645591879735
93	0xbf9f74569bca9e6a	-0.030717232950932795
94	0x3fa96341bc932329	0.04958539416253977
95	0x3f9c6d546b0586e3	0.027760809928969798
96	0xbf9e5bb959af5c91	-0.029646774386347167
97	0x3fa154837a9428b6	0.033847912514901976
98	0x3fa643a65b3e05ea	0.043484877241109235
99	0xbf9f1d58d610edaf	-0.030385387483176703
100	0x3fa53d4581846594	0.041483089504434606
101	0x3f977596dfda3589	0.022909505284180596
102	0xbfa57e7a6bc1301a	-0.04198057713855992
103	0x3fa67197c21d5469	0.04383539433062184
104	0x3f9f401028dfe8bf	0.030517818922796588
105	0xbf9a9de2800b2e0d	-0.025992907586255543
106	0x3f95149069f9d088	0.020586258381130068
107	0x3fa6fbc1d72a700d	0.0448895049241572
108	0xbfa0677747cb682c	-0.032039382471069494
109	0x3fa406cb73504f2b	0.03911433966291463
110	0x3fa33f20d3a5a801	0.03759100516874981
111	0xbf98abac5bafe248	-0.02409238156903573
112	0x3f96649732027804	0.02186809771284716
113	0x3fa076e6fd4039fa	0.03215715257111991
114	0xbfa24068e1730d77	-0.035647656937295595
115	0x3f94f8be65dd1d4d	0.02048013207175119
116	0x3fa66124d70fa8cf	0.043709899189552474
117	0xbf9e40a013268877	-0.029543400925497978
118	0x3fa6775123192fbb	0.04387906602332189
119	0x3fa4d6240a776cfb	0.0406962645317552
120	0xbfa0c4615240cccb	-0.03274826172892061
121	0x3fa08fc556e073c6	0.032346884589265865
122	0x3f966f5e612f0544	0.021909212762470945
123	0xbf985525d1497e4b	-0.023762312792653877
124	0x3f9694f1cf672cd5	0.022052553447605334
125	0x3fa42b838b160687	0.03939448426082231
126	0xbfa4f33cfb998067	-0.04091826030048722
127	0x3fa7f0347068b954	0.04675449249440314
128	0x3f973b728931e4b6	0.022687711356841965
129	0xbf93798e01d049b5	-0.019018381939597002
130	0x3f9c4801305163cd	0.027618425916759826
131	0x3f9bfa5a9053c528	0.027322211321863993
132	0xbfa5711e8bc29a1e	-0.04187865692192737
133	0x3fa96aa43bf91f3e	0.04964173538297566
134	0x3f9dceab34e2d71e	0.02910869131365878
135	0xbfa57bb0124f931c	-0.04195928786774614
136	0x3fa7884ff72bf660	0.045961855814294905
137	0x3fa4c3d06ac5f574	0.040556443246695745
138	0xbf933cb34295717b	-0.018786240519476288
139	0x3fa76e2686055365	0.04576225648876323
140	0x3fa0fe090a287775	0.0331881356143943
141	0xbfa44c9a15cc8fe0	-0.039646926079768496
142	0x3fa2e07684a5a289	0.03686876649118626
143	0x3fa20b6a288afa46	0.03524333710582943
144	0xbf920cd19f80aed0	-0.017627024994154195
145	0x3fa8a44c6065266a	0.04812849690149508
146	0x3f9957f8a688b642	0.024749646343641858
147	0xbf99c7e5e74d866a	-0.025176613085369594
148	0x3f9ca17e49ad6d12	0.027959798094667816
149	0x3fa1d9fe93a963d0	0.03486629059324964
150	0xbfa2b45cc28040c9	-0.036532305472179845
151	0x3fa4a2139f1707e3	0.040299046678697235
152	0x3fa5adab9454137c	0.042340623718735565
153	0xbf9a1eda64d32c04	-0.02550832023989004
154	0x3f9a1e7e1c2dedd4	0.02550694510453673
155	0x3fa5a67e186ff5eb	0.04228586242968987
156	0xbf941dd1696bcef2	-0.019644996699709823
157	0x3f9d450d3a70bce6	0.028583723728101605
158	0x3f98c316b58376c6	0.02418170435782121
159	0xbfa1a046d0d08ac8	-0.03442593859678805
160	0x3f9ae8d257de2557	0.026278769124052328
161	0x3f9fc84590ab68bd	0.031037413554124472
162	0xbf916e64ba98dbeb	-0.01702268017671919
163	0x3f973e202d61bbf3	0.022697928209193873
164	0x3f9cbd5adbcc312e	0.02806608168161622
165	0xbfa5950f35ddecc1	-0.042152858090923846
166	0x3f9b0cdebd53dabb	0.026416282945286734
167	0x3fa31fcfda5291aa	0.037352080727291195
168	0xbf97aa5f9273725a	-0.023110860170037696
169	0x3f927a5075a9e0ec	0.018044717008224007
170	0x3f9bd21c589950f7	0.02716869631542892
171	0xbf97f584dbc47fac	-0.02339751807551209
172	0x3fa90d063aaf4aa1	0.048927492774642596
173	0x3f98bbd5007102b6	0.024154022361701798
174	0xbfa278ba22c4cc48	-0.03607732462332841
175	0x3fa1ee4189de6e80	0.03502087409944199
176	0x3f970af25d9b65d3	0.022502696002310984
177	0xbfa62bb4ed6d25c0	-0.04330220602293933
178	0x3fa0c195b866f3f8	0.03272693515780384
179	0x3fa616f2929942d9	0.0431438259080374
180	0xbf97556c52694b4d	-0.022786800889956372
181	0x3fa111a0927379f7	0.033337610127762866
182	0x3f9686a41320b8a0	0.021997989337415036
183	0xbfa240e818f06f32	-0.035651448292098556
184	0x3fa75f2ff02c0b5a	0.04564809614932726
185	0x3f8eb793e8de4040	0.014998584312508112
186	0xbf9e7a3efdc3faaf	-0.029763206709498998
187	0x3f96c590d7148740	0.022238028647854735
188	0x3fa70a7ab77eeb82	0.045001826190364205
189	0xbfa3e78bb5aca8eb	-0.03887592880922049
190	0x3fa0352347a79930	0.03165540933314259
191	0x3fa2c817b6364969	0.03668283557194025
192	0xbfa034e800a126c6	-0.031653642727702144
193	0x3fa50959045db4de	0.04108694246574783
194	0x3fa007de3031e548	0.03131002748791417
195	0xbfa0e483c40f1c86	-0.032993428881632744
196	0x3f91a0c5e8104caf	0.017214863099138607
197	0x3f9b0618feeebe58	0.02639044815049227
198	0xbf98486d97d28512	-0.02371379126691859
199	0x3faa928089465092	0.05189897227970265
200	0x3f9e1b3ff2054cbc	0.02940082468678605
201	0xbfa4581157748361	-0.03973440353934766
202	0x3fa453324c619167	0.03969723875414637
203	0x3fa5344de6bb914c	0.041414675155268726
204	0xbf942969f5ce9929	-0.019689231517667913
205	0x3fa021ea3759d69c	0.03150875020666641
206	0x3fa07b697113c2a5	0.03219155793511178
207	0xbf9bb825d4cf7762	-0.02706965552703567
208	0x3fa78ce922546ef4	0.045996938172008145
209	0x3fa438840e701ab2	0.039493681681098805
210	0xbf9727474836d8a7	-0.02261077287922633
211	0x3fa80a122d4e61db	0.04695183566144908
212	0x3fa18557e6c1ff79	0.03422045413844805
213	0xbfa0b815a9bc7bc3	-0.03265445420242188
214	0x3f9f9f1ce7421224	0.03088040505874025
215	0x3fa0197abe35e6d4	0.03144439289003534
216	0xbfa04b3ef4b830bd	-0.0318240808229304
217	0x3fa0419a4c31b87b	0.03175050907235374
218	0x3f96e92df92182ec	0.02237388451647153
219	0xbf901ce22415296d	-0.015735181286154743
220	0x3fa35f706812e8ef	0.03783751745636887
221	0x3f9e6bb3019c3cda	0.029707715009007575
222	0xbf92227292079b0c	-0.017709531939455167
223	0x3fa8428b5a966991	0.04738269310765298
224	0x3f9da84329ca0a26	0.02896218245087758
225	0xbfa0da6f3ce8ea56	-0.03291652315643449
226	0x3fa3a2b116b012bf	0.038350614566331036
227	0x3fa28b671630d17c	0.036219808062386755
228	0xbfa2cb363b16c188	-0.036706633294104896
229	0x3fa53fa235406dc5	0.041501111031006434
230	0x3fa68476d64b6b5a	0.043979371699342365
231	0xbf9b3e25bee95fc3	-0.026604261185951616
232	0x3faab125125b1030	0.05213275765484615
233	0x3fa2d2ff9d4ecb49	0.03676604075680829
234	0xbf9d7c7395e2e479	-0.028795057319005644
235	0x3fa1fbb7caa70868	0.03512358044419345
236	0x3fa4b83eb08df936	0.04046817689139674
237	0xbfa352ad78fbf7ac	-0.03774015523775573
238	0x3fa011ae63e3d42e	0.031384896939848125
239	0x3f964cfc857ba40e	0.021778054854539923
240	0xbfa493a9e7d28d05	-0.04018908457626406
241	0x3fa29d3bf80c37ce	0.036355852154983034
242	0x3f98e486c97d317e	0.024309259460367987
243	0xbf9b1058754b2edd	-0.026429540785826034
244	0x3f9790a95ca946af	0.023012777596085495
245	0x3fa713cb184b6c8d	0.04507288619580505
246	0xbfa5f74978b7446e	-0.04290227507193199
247	0x3fa0a1bd2c8aae70	0.03248397034380168
248	0x3fa3ece339da9a86	0.03891668397163976
249	0xbf9919a801b33166	-0.024511933425672615
250	0x3fa1482f56ed9235	0.03375385223515474
251	0x3f9b5d5388613ba7	0.026723199080432327
252	0xbf95488a02a8787e	-0.02078452721809087
253	0x3fa791b9ceeec371	0.04603367472680631
254	0x3f95ce9959a15bce	0.02129592523155193
255	0xbfa56a1b0470a68d	-0.04182514599990581
